NNModel.pth (torch, 71255 bytes, 6 tensors)

linear_relu_stack.0.weight f4 [128, 3]
0	0x00408ad6	5.927277e-39
1	0x000fc0a9	1.446646e-39
2	0x001f96ec	2.901041e-39
3	0x9fbeed53	-8.086075e-20
4	0x8047563e	-6.551258e-39
5	0x800b6251	-1.04546e-39
6	0x06587cb7	4.071671e-35
7	0x04419cbe	2.2759013e-36
8	0x0686378f	5.0486834e-35
9	0x3cb73320	0.022363245
10	0x3a56cabe	0.0008193663
11	0x3cc1ec51	0.023672255
12	0x3cd2c7fe	0.02573013
13	0x3b0921a1	0.0020924585
14	0x3d6c321a	0.057664968
15	0x3d1f9f42	0.03897024
16	0x3b03b64a	0.0020097666
17	0x3d254de4	0.040357485
18	0x9d0c5e02	-1.8577447e-21
19	0x000c7ebd	1.147491e-39
20	0x804c7573	-7.02163e-39
21	0x105293ff	4.152921e-29
22	0x0e6a8864	2.8908397e-30
23	0x10670f17	4.5568342e-29
24	0x107ecf0f	5.025218e-29
25	0x0e91e85c	3.5969014e-30
26	0x1031ea42	3.508756e-29
27	0x3ba926b0	0.0051620826
28	0x39cbd4da	0.00038877764
29	0x3bdb3704	0.006689908
30	0x0005da34	5.37454e-40
31	0x0025a9f2	3.458878e-39
32	0x9c3e275b	-6.291659e-22
33	0x3b281522	0.0025647362
34	0x3949bcf1	0.0001923924
35	0x3bf75ca2	0.0075488845
36	0x106ea236	4.7062187e-29
37	0x0e8ebcd9	3.5187556e-30
38	0x108d55bd	5.5746795e-29
39	0x93bee55c	-4.818891e-27
40	0x9920c6db	-8.311965e-24
41	0x1531609e	3.5821083e-26
42	0x3d9ca366	0.07648353
43	0x3b8f5c7f	0.00437504
44	0x3db24a5b	0.087055884
45	0x3c538061	0.012909026
46	0x39a21aed	0.0003091911
47	0x3ba5fa7e	0.0050652614
48	0x2248cced	2.7213541e-18
49	0x1f87915a	5.741519e-20
50	0x2283e4c1	3.5749824e-18
51	0x800e5e5f	-1.319551e-39
52	0x80010798	-9.456e-41
53	0x847b2cf8	-2.9525557e-36
54	0x3b8b80a8	0.0042572804
55	0x399bfd28	0.0002975252
56	0x3ba4aa82	0.005025209
57	0x10db104f	8.6405396e-29
58	0x0ef3b4c9	6.0078215e-30
59	0x10e45128	9.0055184e-29
60	0x3e8421ac	0.2580694
61	0x3c1fbe54	0.009749968
62	0xbd6a3fc6	-0.057189725
63	0x0df3e9e2	1.50323365e-30
64	0x0c201f46	1.2335363e-31
65	0x0e1d123c	1.9360524e-30
66	0x100b4510	2.746612e-29
67	0x0f263a0c	8.195611e-30
68	0x112584f1	1.3057171e-28
69	0x0aa76a40	1.6121482e-32
70	0x08d2cbb9	1.268681e-33
71	0x0abdb06d	1.8266402e-32
72	0x3a63f00f	0.00086951343
73	0x388866b3	6.5041146e-05
74	0x3aa270ed	0.0012393274
75	0x3d92e0ee	0.07171808
76	0x3ba7a591	0.0051161726
77	0x3dc24235	0.09485284
78	0x3d9d7c1a	0.07689686
79	0x3bcf4434	0.006325269
80	0x3dfab0a9	0.122407265
81	0x3e13ac4d	0.14421196
82	0x3c17a004	0.009254459
83	0x3e0a9a22	0.1353536
84	0x002a7e63	3.90243e-39
85	0x0039febd	5.326006e-39
86	0x003b13ae	5.425354e-39
87	0x0eb661df	4.496071e-30
88	0x0d304ea1	5.4328833e-31
89	0x0ecc410a	5.0352513e-30
90	0x999c2396	-1.6144395e-23
91	0x8046b67b	-6.493946e-39
92	0x00116536	1.597511e-39
93	0x803890b6	-5.1947e-39
94	0x800a43b3	-9.42641e-40
95	0x9dd4ebb3	-5.635964e-21
96	0x3db01449	0.08597619
97	0x3be797b9	0.0070676473
98	0x3d652fce	0.055953793
99	0x3d90e209	0.07074363
100	0x3bcad7d1	0.006190278
101	0x3dd101c8	0.10205418
102	0x3be92d5a	0.007116002
103	0x39ecbf12	0.00045155786
104	0x3bf88b02	0.0075849304
105	0x2485b163	5.798006e-17
106	0x22d91c8e	5.88482e-18
107	0x24bbc58e	8.143299e-17
108	0x3792f3b0	1.7518032e-05
109	0x359b8a4c	1.158865e-06
110	0x37a9b498	2.0230465e-05
111	0x8005b210	-5.23054e-40
112	0x85fd0cfa	-2.3796772e-35
113	0x960d33a0	-1.1406179e-25
114	0x3c852caa	0.016256649
115	0x3a1e3c93	0.0006036248
116	0x3ceef3b4	0.029168941
117	0x3d94d198	0.07266539
118	0x3bab464e	0.005226887
119	0x3dd2f3b6	0.103003904
120	0x3ca44870	0.020054072
121	0x3ac9af44	0.0015387316
122	0x3cf0c6fb	0.029391756
123	0x3bd140c4	0.0063858945
124	0x39f5bfe9	0.00046873026
125	0x3c1ed4df	0.009694307
126	0x1c031eb2	4.3383937e-22
127	0x9eda93dc	-2.3142801e-20
128	0x1c2a9926	5.644622e-22
129	0x3d129366	0.0357851
130	0x3b219158	0.0024653282
131	0x3cdd9bc3	0.027051812
132	0x000d99ea	1.249075e-39
133	0x8b404e66	-3.7036835e-32
134	0x9f6744cf	-4.897307e-20
135	0x0a21e5ba	7.795075e-33
136	0x083e823f	5.732915e-34
137	0x0a6716d3	1.1126538e-32
138	0x3e18e210	0.14929986
139	0x3c37cc08	0.011218078
140	0x3e47a5cc	0.1949684
141	0x1056981a	4.2321233e-29
142	0x0f3fb69a	9.452195e-30
143	0x10e5501c	9.0448e-29
144	0x10aab5ff	6.7333586e-29
145	0x0fa7c6a7	1.654399e-29
146	0x11096e60	1.0841406e-28
147	0x3d98793f	0.07445001
148	0x3bac5949	0.005259667
149	0x3d2582bb	0.040407877
150	0xbcc2e0eb	-0.02378889
151	0x3c1cd546	0.009572333
152	0x3e8139c8	0.25239396
153	0x3db7cb17	0.08974283
154	0x3bb79904	0.0056029577
155	0xbd1c0569	-0.038091097
156	0x2262e2e5	3.0748828e-18
157	0x2089914b	2.330485e-19
158	0x228d75dd	3.834292e-18
159	0x3d5b80f5	0.05358978
160	0x3b7ce910	0.0038591065
161	0x3d8c9a42	0.0686536
162	0x0ebb19bc	4.612384e-30
163	0x0cbf8c2d	2.9512575e-31
164	0x0eecb673	5.8354184e-30
165	0x25d7eb89	3.745616e-16
166	0x2423ecc9	3.5545556e-17
167	0x261c6e6c	5.427302e-16
168	0x3d89fd75	0.06737796
169	0x3bc83929	0.0061103296
170	0x3dbfc430	0.09363592
171	0x3d7179b6	0.058953963
172	0x3bd06f05	0.006360891
173	0x3ddae9eb	0.106891476
174	0x3cf0eca8	0.029409721
175	0x3b140e19	0.002259141
176	0x3d18034e	0.037112527
177	0x2908051d	3.02025e-14
178	0x87adc87f	-2.6147988e-34
179	0x07faee29	3.7755797e-34
180	0x3ce56f7b	0.02800726
181	0x3b6f6c16	0.003653293
182	0x3cabfa01	0.020993235
183	0x0022552e	3.152964e-39
184	0x001d89e2	2.712692e-39
185	0x802abf1d	-3.92565e-39
186	0x10571d30	4.242376e-29
187	0x0e9668bc	3.707871e-30
188	0x10a16e8b	6.367362e-29
189	0x2bd509a0	1.5137232e-12
190	0x29e0c3de	9.981576e-14
191	0x2c0b1eff	1.9770294e-12
192	0x1078d33c	4.9072105e-29
193	0x0e7e9888	3.1381358e-30
194	0x10b23131	7.028441e-29
195	0x0faabe18	1.6836516e-29
196	0x0dec3bad	1.4558989e-30
197	0x1012f2fe	2.8980617e-29
198	0x3d25911f	0.0404216
199	0x3bcf3279	0.0063231555
200	0x3e0120a3	0.12610106
201	0x3e108a51	0.14115264
202	0x3c48c26f	0.012253388
203	0x3e5c650a	0.21522918
204	0x003103dd	4.501325e-39
205	0x8cd0b0c3	-3.215386e-31
206	0x9e8237a2	-1.3787295e-20
207	0x3d2ccf92	0.042190142
208	0x3acd1c8c	0.0015648766
209	0x3cf2a5e5	0.02962012
210	0x3da40f77	0.08010762
211	0x3ba700b6	0.0050965203
212	0x3d657c79	0.05602691
213	0x3d520702	0.051276214
214	0x3a693a40	0.00088969246
215	0x3db12b7a	0.086508706
216	0x10cfb466	8.192505e-29
217	0x0ecd3529	5.0587593e-30
218	0x1105838c	1.0532386e-28
219	0x3e7d2927	0.2472273
220	0x3c55dacb	0.013052653
221	0x3e7a4502	0.24440387
222	0xa09eecc5	-2.6922922e-19
223	0x05b03d46	1.6573469e-35
224	0x00014d73	1.19619e-40
225	0x3b2001c1	0.0024415108
226	0x3930494b	0.00016811972
227	0x3b5190aa	0.0031977096
228	0x3d317db5	0.043332774
229	0x3b6ee646	0.0036453172
230	0x3d7e3d8c	0.062070414
231	0x9460a310	-1.1341268e-26
232	0x801086d7	-1.51774e-39
233	0x00317eb8	4.545397e-39
234	0x208a3923	2.341592e-19
235	0x1eb23a3d	1.887057e-20
236	0x20aa51de	2.8853295e-19
237	0x3d252aa6	0.040323876
238	0x3b9f7b1d	0.004866971
239	0x3e132864	0.14370877
240	0x00023e72	2.06072e-40
241	0x83dc277a	-1.2939501e-36
242	0x979f595f	-1.0297695e-24
243	0x3b32abe3	0.0027263097
244	0x38da3a87	0.000104059516
245	0x3c4b82e0	0.01242134
246	0x0f2c2ea0	8.4892344e-30
247	0x0d4cb10e	6.3075475e-31
248	0x0f7092c6	1.1861181e-29
249	0x109156da	5.732623e-29
250	0x0ed6f8d1	5.2994675e-30
251	0x10d5ce08	8.433113e-29
252	0x3c9c4d22	0.019079749
253	0x3b9faaf3	0.0048726737
254	0x3df78e25	0.12087659
255	0x396d301a	0.0002262

linear_relu_stack.0.bias f4 [128]
0	0x808392a8	-1.208306e-38
1	0x973a287f	-6.0150955e-25
2	0x06a84484	6.329525e-35
3	0x3befb448	0.0073151924
4	0x3d17374d	0.036917973
5	0x3d18c7c0	0.03729987
6	0x8036216b	-4.971105e-39
7	0x10c537c0	7.7788696e-29
8	0x10d1f0d5	8.2807025e-29
9	0x3c1d40b5	0.009597947
10	0x802668d3	-3.527353e-39
11	0x3ade4821	0.0016958752
12	0x10ae43d0	6.873538e-29
13	0x14a93dc8	1.7089008e-26
14	0x3db20e7a	0.086941674
15	0x3b3c28ed	0.0028710917
16	0x22a60116	4.499554e-18
17	0x9f7e5df4	-5.3864308e-20
18	0x3bf1d358	0.0073799305
19	0x115ac9b7	1.7259326e-28
20	0x3ec2764c	0.37980878
21	0x0d8f3d42	8.827803e-31
22	0x11680c72	1.8305408e-28
23	0x0af27f64	2.3351671e-32
24	0x3aca347c	0.0015427019
25	0x3dff41e1	0.12463737
26	0x3e22cc36	0.15898213
27	0x3e8c2bdd	0.27377215
28	0x002a839c	3.904303e-39
29	0x0ef7a943	6.1053194e-30
30	0x000878d2	7.78026e-40
31	0x00131c33	1.75499e-39
32	0x3e80278f	0.2503018
33	0x3e358d3b	0.17729656
34	0x3c37ef25	0.01122645
35	0x24f476b8	1.0601925e-16
36	0x37fd9e7b	3.0233748e-05
37	0x8023f6fa	-3.302841e-39
38	0xbb20c9d1	-0.0024534354
39	0x3df0d2eb	0.117589794
40	0x3d1686b7	0.036749568
41	0x3c34e10e	0.011039985
42	0x1cb5a574	1.2020344e-21
43	0x3d943a47	0.07237678
44	0x0028cba7	3.746477e-39
45	0x0a8b0f4a	1.3390964e-32
46	0x3ea3245d	0.3186368
47	0x11226576	1.2810812e-28
48	0x113e990e	1.5035521e-28
49	0x3e3323be	0.17494103
50	0x3ea0ee57	0.3143184
51	0x3e823fb9	0.25439242
52	0x22c2d6ca	5.2811222e-18
53	0x3dc230ba	0.0948195
54	0x0f1ba1b7	7.673235e-30
55	0x264cd61c	7.106689e-16
56	0x3e38c85b	0.1804518
57	0x3e378e3e	0.17925355
58	0x3d573859	0.05254397
59	0xacbfc6a5	-5.4506005e-12
60	0x3e14376f	0.14474271
61	0x951970ca	-3.098708e-26
62	0x10cd11f0	8.088588e-29
63	0x2c37d550	2.6124276e-12
64	0x10e4853e	9.0135435e-29
65	0x10621825	4.458924e-29
66	0x3e46735b	0.19379942
67	0x3ec2a83b	0.38018975
68	0x0011b7f0	1.627188e-39
69	0x3cd9da54	0.026593365
70	0x3e155f97	0.14587246
71	0xbd7078a8	-0.058708817
72	0x113f8c8d	1.5110554e-28
73	0x3ea2635e	0.31716436
74	0x001c9c4c	2.627463e-39
75	0x3b932693	0.0044906824
76	0x3dbf2fc5	0.09335283
77	0x800470c6	-4.07797e-40
78	0x20ed02c6	4.0151197e-19
79	0x3de88d78	0.11355108
80	0x8023cc74	-3.287586e-39
81	0xbba8ad77	-0.0051476317
82	0x0fa1b52f	1.5945615e-29
83	0x11176e36	1.1945761e-28
84	0x3e1c56d2	0.15267494
85	0x39ca448d	0.00038579517
86	0x257e2e4c	2.2046674e-16
87	0x34ed22cc	4.4170008e-07
88	0x2db6fb28	2.080254e-11
89	0x110621ac	1.0581112e-28
90	0x3eba6c43	0.36410722
91	0x001126f3	1.575176e-39
92	0x3e983769	0.29729775
93	0x3ca3f650	0.020014912
94	0x3df48224	0.11938885
95	0x3cfd7830	0.030941099
96	0x3dd40012	0.10351576
97	0x3e0f0369	0.13966145
98	0x37439eeb	1.1659907e-05
99	0x3e3e7364	0.18598706
100	0x007f3ed5	1.1685648e-38
101	0x96ba1851	-3.0065267e-25
102	0x11329b3a	1.4089557e-28
103	0x0033a699	4.743374e-39
104	0x2da32e70	1.8551577e-11
105	0x34bd0482	3.5207273e-07
106	0x3917f918	0.00014493277
107	0x3d9004fb	0.070322
108	0x1144efa8	1.5535524e-28
109	0x3cedea1f	0.029042302
110	0x099e9aff	3.8182874e-33
111	0x112369e2	1.289106e-28
112	0x3ce9cb02	0.028539184
113	0x256f7f9f	2.0773185e-16
114	0x3e0584a8	0.13038886
115	0x3e6cd67c	0.23128694
116	0x3e05836a	0.13038412
117	0x2b626b4d	8.044024e-13
118	0x3c2f1241	0.010685504
119	0x1c9080cb	9.562413e-22
120	0x3e7a9a54	0.24472934
121	0x3dbdc0d3	0.09265294
122	0x0024f566	3.39411e-39
123	0x20913b78	2.4603309e-19
124	0x3c84d874	0.016216494
125	0x30014db5	4.7040355e-10
126	0x3eba2d07	0.36362478
127	0xbd525592	-0.051351137

linear_relu_stack.2.weight f4 [128, 128]
0	0x8019f1a0	-2.382566e-39
1	0x00034814	3.01363e-40
2	0x809a33a1	-1.4161187e-38
3	0x9730dffe	-5.7151385e-25
4	0x188075d4	3.32062e-24
5	0x1832b504	2.309735e-24
6	0x0010a6ae	1.529161e-39
7	0x0146f1eb	3.6540424e-38
8	0x802c1e99	-4.051738e-39
9	0x17876ce5	8.751659e-25
10	0x00100994	1.472804e-39
11	0x16350015	1.462109e-25
12	0x0027234b	3.594245e-39
13	0x000a3f2a	9.41014e-40
14	0x1906faba	6.9782715e-24
15	0x17497f8f	6.5107604e-25
16	0x810df1d2	-2.6071107e-38
17	0x0035409d	4.89046e-39
18	0x174d5ce5	6.635632e-25
19	0x8011b94f	-1.62768e-39
20	0x98b74ba0	-4.7380753e-24
21	0x8124915c	-3.0226333e-38
22	0x00325d20	4.625182e-39
23	0x800ab05f	-9.81625e-40
24	0x15d0a01c	8.426314e-26
25	0x1921de58	8.368407e-24
26	0x1923c4d8	8.466655e-24
27	0x191e8aff	8.1964786e-24
28	0x0023b2b3	3.278348e-39
29	0x812cf322	-3.176585e-38
30	0x00f9a3c1	2.2925782e-38
31	0x804000bb	-5.877734e-39
32	0x99646a08	-1.18087366e-23
33	0x18cc618f	5.2831273e-24
34	0x15a958e4	6.83988e-26
35	0x8046aed2	-6.491198e-39
36	0x12e9e3c6	1.4760518e-27
37	0x800c9efa	-1.159056e-39
38	0x174b6236	6.5716797e-25
39	0x18ab7613	4.432169e-24
40	0x17f9dade	1.6146498e-24
41	0x173224bd	5.756127e-25
42	0x80de899a	-2.0436842e-38
43	0x97bdd22c	-1.2266894e-24
44	0x0028d7dc	3.750856e-39
45	0x001c332c	2.589751e-39
46	0x195291c5	1.08861835e-23
47	0x8007a04e	-7.00355e-40
48	0x8006aceb	-6.13044e-40
49	0x19353a33	9.369234e-24
50	0x9908eb75	-7.078585e-24
51	0x191b507b	8.029565e-24
52	0x00203e12	2.961003e-39
53	0x182a5b0e	2.2017956e-24
54	0x80b57aa6	-1.6666223e-38
55	0x010b75b8	2.5614727e-38
56	0x194328b0	1.00894805e-23
57	0x194b7509	1.0518489e-23
58	0x1899f7bc	3.979972e-24
59	0x0016ea0e	2.104344e-39
60	0x18ac61c7	4.4559688e-24
61	0x8011a99b	-1.622046e-39
62	0x801ac680	-2.458931e-39
63	0x0749d1c8	1.5183208e-34
64	0x800d4b3e	-1.220853e-39
65	0x80941f30	-1.3602841e-38
66	0x1935a967	9.391691e-24
67	0x19d02569	2.1521806e-23
68	0x80312903	-4.514652e-39
69	0x18811c41	3.3374248e-24
70	0x191973a1	7.933266e-24
71	0x177b417e	8.1185137e-25
72	0x804c3af0	-7.00064e-39
73	0x1a190c57	3.1649626e-23
74	0x0035fb79	4.957493e-39
75	0x164213c8	1.5677437e-25
76	0x18b25fa2	4.6108486e-24
77	0x00309a09	4.463361e-39
78	0x003f9862	5.840301e-39
79	0x18bddcd6	4.9078342e-24
80	0x800bc547	-1.08096e-39
81	0x1682758b	2.1076813e-25
82	0x00363055	4.976455e-39
83	0x8025de37	-3.477629e-39
84	0x1916657f	7.775315e-24
85	0x14b723de	1.8492425e-26
86	0x0128521d	3.091564e-38
87	0x0feac0bc	2.314842e-29
88	0x0962734f	2.7257978e-33
89	0x8040d18a	-5.95264e-39
90	0x1984799b	1.3697596e-23
91	0x80135c2c	-1.77794e-39
92	0x98cbe81a	-5.2708633e-24
93	0x176934d2	7.535303e-25
94	0x976bbd18	-7.6171265e-25
95	0x181ddb81	2.0402596e-24
96	0x97d6df90	-1.3885861e-24
97	0x1814e017	1.9241688e-24
98	0x12490889	6.3434937e-28
99	0x18f68b0a	6.3729903e-24
100	0x020cd35c	1.0346233e-37
101	0x80256fa1	-3.437958e-39
102	0x00cef31c	1.9005323e-38
103	0x00077e89	6.88241e-40
104	0x0943d2ef	2.3571452e-33
105	0x904490de	-3.8765786e-29
106	0x133a8db0	2.3546358e-27
107	0x18031279	1.694068e-24
108	0x004bee65	6.973182e-39
109	0x1827b1ac	2.1673945e-24
110	0x00600d9a	8.821087e-39
111	0x8012049d	-1.654694e-39
112	0x17eb108a	1.5190694e-24
113	0x009bb822	1.4300556e-38
114	0x99071363	-6.9832515e-24
115	0x1927a414	8.666833e-24
116	0x1795cf5c	9.681244e-25
117	0x06474ef7	3.7485754e-35
118	0x1834a4cd	2.3347658e-24
119	0x8018a812	-2.264344e-39
120	0x1938a728	9.546334e-24
121	0x16c917f4	3.2488418e-25
122	0x8013fc6a	-1.835424e-39
123	0x01efbffe	8.807023e-38
124	0x17bac02b	1.2068478e-24
125	0x0a06e3ae	6.494687e-33
126	0x199a42bd	1.5950182e-23
127	0x0f3dd693	9.359745e-30
128	0x003036cb	4.42776e-39
129	0x8016cc25	-2.093614e-39
130	0x03afdc7e	1.0336198e-36
131	0x39aa8ab5	0.00032528272
132	0x3a53037e	0.00080495316
133	0x3a49e75e	0.0007702018
134	0x0023d751	3.291483e-39
135	0x0db7c902	1.1326637e-30
136	0x0ddbea74	1.355336e-30
137	0x39195bac	0.00014625367
138	0x0023ef8c	3.300176e-39
139	0x38a63829	7.9259575e-05
140	0x0d8b0fb1	8.570314e-31
141	0x92d7916f	-1.360426e-27
142	0x3adcc79d	0.0016844157
143	0x38fa1b40	0.00011926005
144	0x1f6515b7	4.8510598e-20
145	0x000935ca	8.45815e-40
146	0x38f38382	0.00011611638
147	0x0e4a6b1a	2.494999e-30
148	0x3b88b019	0.004171383
149	0x0b449ec5	3.7867672e-32
150	0x0df421c3	1.5045789e-30
151	0x086d2c48	7.1371646e-34
152	0x37dc8e34	2.6292262e-05
153	0x3b061a4c	0.0020462452
154	0x3b24d7a4	0.0025152946
155	0x3b7f88c3	0.0038991428
156	0x001b7b38	2.523761e-39
157	0x0c08c2d7	1.0535691e-31
158	0x00294ad4	3.792099e-39
159	0x801f3e44	-2.869237e-39
160	0x3b3ec4b1	0.0029108936
161	0x3b24d2cc	0.0025150059
162	0x393cfe23	0.0001802375
163	0x21c3c384	1.3265467e-18
164	0x3503c45d	4.908705e-07
165	0x00114960	1.587525e-39
166	0x3980038e	0.0002441671
167	0x3b04269c	0.0020164615
168	0x3a1c808f	0.00059700845
169	0x394d14cd	0.00019558072
170	0x185b5de4	2.835249e-24
171	0x3a7e76c7	0.000970703
172	0x801d6248	-2.698486e-39
173	0x08207290	4.8282916e-34
174	0x3b9bab7c	0.004750667
175	0x0e2387a5	2.0156612e-30
176	0x0e11352f	1.7898237e-30
177	0x3b0b4103	0.0021248467
178	0x3b866e87	0.0041025314
179	0x3b1bfcfc	0.0023801913
180	0x1f83b367	5.5777454e-20
181	0x3ac67707	0.0015141674
182	0x0c10c9f0	1.1154125e-31
183	0x23443a76	1.0637561e-17
184	0x3b219ab5	0.0024658863
185	0x3b23ac14	0.0024974393
186	0x3a5dc230	0.0008459417
187	0x800e79f5	-1.329447e-39
188	0x3ac471e2	0.0014987553
189	0x802ca5b8	-4.10021e-39
190	0x0dfdb599	1.5636047e-30
191	0x2919e142	3.4168205e-14
192	0x0dac6691	1.062501e-30
193	0x0d43db5c	6.035306e-31
194	0x3b2ce64e	0.002638239
195	0x3bad6455	0.0052915015
196	0x8005df78	-5.39343e-40
197	0x3a242903	0.0006262215
198	0x3b0312e5	0.0020000276
199	0x39a17466	0.00030795037
200	0x0d9c9564	9.650207e-31
201	0x3bb35324	0.0054725576
202	0x8013e918	-1.828493e-39
203	0x389a1943	7.3479976e-05
204	0x3ab821a0	0.0014048107
205	0x8195ca4a	-5.5024226e-38
206	0x1e0e2e23	7.526958e-21
207	0x3b072b3b	0.0020625133
208	0x8011a9b4	-1.622081e-39
209	0x3860dab0	5.360943e-05
210	0x0c8da0e1	2.1821315e-31
211	0x0e08fd67	1.6885303e-30
212	0x3b0c759b	0.0021432403
213	0x36cc93c4	6.096876e-06
214	0x2268fa14	3.1574253e-18
215	0x31cfc87c	6.0472853e-09
216	0x2ab01e2b	3.1284814e-13
217	0x0e09235c	1.6903579e-30
218	0x3bccc5fe	0.0062491884
219	0x8001e66d	-1.74497e-40
220	0x3b84c606	0.0040519265
221	0x39ac2ab3	0.0003283821
222	0x3abbc2c5	0.0014325014
223	0x39f5e639	0.0004690157
224	0x3ac0428a	0.0014668268
225	0x3aea9a66	0.0017898798
226	0x3447c1e4	1.8603856e-07
227	0x3b36c5af	0.0027888825
228	0x800457bf	-3.9882e-40
229	0x801ef95c	-2.844518e-39
230	0x0e2aac5d	2.1037108e-30
231	0x003335bc	4.702887e-39
232	0x2aa84b9a	2.9895254e-13
233	0x31cb97a3	5.9253167e-09
234	0x3613ee3b	2.2043375e-06
235	0x3a7cf468	0.00096494565
236	0x0e3c89ec	2.3239196e-30
237	0x3a3e54bf	0.0007260553
238	0x06c7c99a	7.515171e-35
239	0x0e21ebad	1.9958256e-30
240	0x39eecdb2	0.00045548152
241	0x2239a15b	2.5157596e-18
242	0x3ade37ca	0.0016953882
243	0x3b6416da	0.003480366
244	0x3ae014c0	0.0017096028
245	0x283bf262	1.0433144e-14
246	0x3a4d5c02	0.00078338396
247	0x199731cd	1.5633148e-23
248	0x3b0cd665	0.0021490094
249	0x3a912a52	0.0011075235
250	0x00331b99	4.69351e-39
251	0x1da0221e	4.2386924e-21
252	0x3992eb01	0.00028022382
253	0x2d5f6c03	1.2700066e-11
254	0x3b9e7658	0.004835885
255	0x2388f29a	1.4847895e-17

linear_relu_stack.2.bias f4 [128]
0	0x19f82c54	2.5660503e-23
1	0x3c04cfdf	0.008106201
2	0x3e986263	0.29762563
3	0x3ccf9020	0.025337279
4	0xb0cf88a1	-1.5100065e-09
5	0xbb1edac5	-0.0024239284
6	0xb92c987d	-0.00016460005
7	0x3d67ab9f	0.056560155
8	0x3dfc34cc	0.12314758
9	0x3cf111e8	0.029427484
10	0x3c1a6ac9	0.009424874
11	0x3d6af3a6	0.057361268
12	0x227a5d73	3.393079e-18
13	0x384cbdb5	4.881407e-05
14	0x37b0b219	2.1063768e-05
15	0x3c23929d	0.009983686
16	0x3d51c964	0.05121745
17	0x3c0dfba4	0.008665953
18	0x39db9b76	0.00041886762
19	0x3b40e6b4	0.0029434385
20	0x2d6272f3	1.28721365e-11
21	0x3d2aa69b	0.041662794
22	0x3cc80d68	0.024420455
23	0x2028dcab	1.4303166e-19
24	0x3d979231	0.07400931
25	0xbb42b7ea	-0.0029711672
26	0x3d1f9bd2	0.03896696
27	0x3e000f00	0.12505722
28	0xbb2b80df	-0.0026169342
29	0x3c8b177c	0.016978972
30	0x3d000142	0.0312512
31	0x3aca0d8a	0.0015415412
32	0x23799e35	1.3531819e-17
33	0x3d635d3a	0.05550883
34	0xa6860548	-9.299549e-16
35	0x0e1f9008	1.9667612e-30
36	0x3cba1215	0.0227137
37	0x3e994cbd	0.2994136
38	0x1e0ecad1	7.559359e-21
39	0x3ce9acfd	0.02852487
40	0x3aaf36e4	0.0013367799
41	0x3d4ed579	0.050496552
42	0x3d24da89	0.040247474
43	0x3074a764	8.900456e-10
44	0x3db6aab0	0.08919275
45	0x164158bc	1.5618415e-25
46	0xb97728f3	-0.0002357101
47	0x3ce8e7e0	0.02843088
48	0x3cede3ad	0.029039228
49	0x3d217d3a	0.039426066
50	0x3d850516	0.06495111
51	0x3d502398	0.050815195
52	0x1eaf635f	1.8569945e-20
53	0xbb7aad10	-0.0038250126
54	0x3c6191f5	0.013767709
55	0x30921945	1.063008e-09
56	0x3de9def2	0.114194766
57	0xba7db612	-0.00096783147
58	0x281557c5	8.2901935e-15
59	0x3d358f0e	0.04432588
60	0x26d1e480	1.4564223e-15
61	0x3d859d8b	0.065241896
62	0x189b8e5a	4.02103e-24
63	0x3b926e8c	0.0044687446
64	0x2be47695	1.6233288e-12
65	0xbc35e99c	-0.01110306
66	0x30bdb72e	1.3803623e-09
67	0x3ceb33d5	0.028711239
68	0x23bcd44f	2.0472917e-17
69	0x3d8c9bde	0.06865667
70	0x3a5d8176	0.0008449772
71	0x3a1b2a74	0.0005919107
72	0x2523b82b	1.4200395e-16
73	0x3a7b5143	0.0009586999
74	0x28de8109	2.4702911e-14
75	0x3ce246b6	0.027621608
76	0x3d0d4023	0.034484994
77	0x324af362	1.1813286e-08
78	0x38f66911	0.00011749764
79	0x850c9ae4	-6.611217e-36
80	0x3cf9fde8	0.03051658
81	0x2e422fa5	4.415281e-11
82	0x3d05eb90	0.032695353
83	0xbc6c0202	-0.014404776
84	0x3e07bfaf	0.13256715
85	0x3e51794f	0.20456432
86	0x3d36bc8a	0.0446134
87	0x2c8dd83b	4.0314674e-12
88	0x2c758e61	3.489563e-12
89	0x3cc46749	0.023975031
90	0x3d8cf5d0	0.068828225
91	0x3a4e8c99	0.0007879227
92	0x3bce9159	0.006303948
93	0x3ce7e5cc	0.028307818
94	0x3b0a2307	0.0021078007
95	0x3e787621	0.24263813
96	0x2998a76d	6.7792e-14
97	0x3b858a80	0.0040753484
98	0x3c5a89dc	0.013338532
99	0x2a2e6a1a	1.5491116e-13
100	0x3df18091	0.117921
101	0x3d1371c0	0.035997152
102	0x3c97aef4	0.018516041
103	0x3cf75eb3	0.030196523
104	0x3cf52652	0.0299255
105	0x3d60762c	0.054800197
106	0x3daffe7a	0.085934594
107	0x3ce9507b	0.028480759
108	0x30db19af	1.5941647e-09
109	0x3dc74e50	0.09731734
110	0x3d1741ed	0.036928106
111	0xbcc1c503	-0.023653513
112	0x30bef9a3	1.389527e-09
113	0x3d1850e8	0.037186533
114	0x3d056b56	0.032573067
115	0x3c85088d	0.016239429
116	0x3d8af0f7	0.06784242
117	0x3ce83fb5	0.02835069
118	0x3dc361cb	0.09540137
119	0x3c83473c	0.016025178
120	0x3d115091	0.035477225
121	0x3be3f60a	0.0069568204
122	0x290ad4a9	3.082661e-14
123	0x3cec1beb	0.028821906
124	0x27dfb6f0	6.2093275e-15
125	0x2609ad52	4.7766316e-16
126	0x3d3223a5	0.043491025
127	0x3d9eea1c	0.077594966

linear_relu_stack.4.weight f4 [2, 128]
0	0x1a0709a0	2.792512e-23
1	0x3d4a7906	0.049431823
2	0x3efe6d54	0.49692786
3	0x3d1ebf0f	0.038756426
4	0x232850a3	9.124374e-18
5	0x3a066f63	0.0005128292
6	0xbc92cbbd	-0.017919416
7	0x3db8a8a9	0.09016544
8	0x3e524573	0.20534305
9	0x3d8957ba	0.06706186
10	0xbc5015dc	-0.012700524
11	0x3dca967f	0.09891986
12	0x22d1ae57	5.6834153e-18
13	0x3a6e90c9	0.0009100554
14	0x38134782	3.5114128e-05
15	0x3daeeeb0	0.0854162
16	0x3deb8cfd	0.11501501
17	0xbc3e59f9	-0.011618131
18	0xbbdbb326	-0.006704706
19	0x3c65f235	0.014034797
20	0x2dd5a757	2.428961e-11
21	0x3d296cfe	0.04136371
22	0xbd022abe	-0.031779043
23	0x20892960	2.3236082e-19
24	0x3dd58cdf	0.1042726
25	0xb831880e	-4.23268e-05
26	0x3dc6f1cf	0.0971409
27	0x3e556c8b	0.20842187
28	0xbb478b00	-0.003044784
29	0x3ce9b205	0.02852727
30	0x3dbd38d5	0.092393555
31	0x39f145f0	0.0004601921
32	0x23e29906	2.4567777e-17
33	0x3dec68c2	0.115434185
34	0x28cec55d	2.2956187e-14
35	0x8f8951e2	-1.3540783e-29
36	0x3dd24c9a	0.10268517
37	0x3efff58d	0.49992028
38	0x1e492758	1.06489875e-20
39	0x3c1451b8	0.009052686
40	0x3ca2e42d	0.019884193
41	0x3e040589	0.12892736
42	0x3db05b5c	0.086111754
43	0x30d275e8	1.5313022e-09
44	0x3df1f001	0.11813355
45	0x16a10acc	2.6017767e-25
46	0x38827be3	6.221959e-05
47	0x3d84acbd	0.0647826
48	0x3bf9956c	0.0076166894
49	0x3c0b46b8	0.008500747
50	0x3ddedfe3	0.10882547
51	0x3dcbae93	0.09945407
52	0x1ed519e9	2.2562968e-20
53	0xbb4ce213	-0.003126268
54	0x3c198649	0.009370395
55	0x30e63a55	1.6751281e-09
56	0x3e42fb96	0.19041285
57	0xa1722c3b	-8.205133e-19
58	0x286e0637	1.3213002e-14
59	0x3dc0d2e8	0.09415227
60	0x27258171	2.296852e-15
61	0x3d82922f	0.063755386
62	0x19837ebd	1.3596272e-23
63	0xbb38adbb	-0.0028179723
64	0x2c443504	2.7882705e-12
65	0x3c13f743	0.00903112
66	0x312bec40	2.5018068e-09
67	0xbba78ee8	-0.0051134713
68	0x23e7b109	2.5120047e-17
69	0x3debcaa3	0.11513259
70	0x3ac87088	0.0015292326
71	0x3a84f143	0.0010142702
72	0x2583b033	2.2844275e-16
73	0x3ad19c02	0.0015991929
74	0x293f1e2e	4.2436696e-14
75	0x3d46ecd9	0.04856572
76	0x3df4ea40	0.11958742
77	0x32a8e3af	1.9661313e-08
78	0xb8d0f9b4	-9.964724e-05
79	0x05906228	1.3577752e-35
80	0x3d965549	0.073404856
81	0x2e95a2c0	6.804646e-11
82	0x3d04fc49	0.03246716
83	0x3b03c8ff	0.0020108817
84	0x3e6258d5	0.22104199
85	0x3eaebabf	0.3412685
86	0x3d6f070b	0.058356326
87	0x2cebae93	6.6984833e-12
88	0xaa3e7711	-1.69167e-13
89	0x3d48ed0f	0.0490542
90	0x3ddef46a	0.10886462
91	0x3aad2095	0.0013208563
92	0x3c2e57be	0.010641037
93	0x3cb0b552	0.021570835
94	0xbd19609b	-0.037445646
95	0x3ecf507b	0.4049109
96	0x2a35fc08	1.616347e-13
97	0xbb2d543a	-0.0026447908
98	0x3dc475f3	0.095928095
99	0x2a053df7	1.1834271e-13
100	0x3e495c0c	0.1966402
101	0x3dd87dad	0.10570846
102	0x3d564e34	0.052320674
103	0x3df5bb8e	0.11998664
104	0xbae31db0	-0.0017327573
105	0x3d3021d8	0.043001026
106	0x3de6a247	0.11261421
107	0x3dd53111	0.10409749
108	0x315a780c	3.1791414e-09
109	0x3dc68cdf	0.09694838
110	0x3d040dda	0.032239772
111	0xbb93dd18	-0.0045124404
112	0x3115e225	2.1810902e-09
113	0x3dbd48ea	0.09242423
114	0x3c1a6c17	0.009425185
115	0x3d9e10cd	0.07718048
116	0x3da680b3	0.08130016
117	0x3d52f6b0	0.05150479
118	0x3e22e72d	0.15908499
119	0x3d076248	0.033052713
120	0x3d814ffe	0.063140854
121	0x3bd0cd3a	0.006372121
122	0x292ca22e	3.833234e-14
123	0x3d4b9381	0.049701218
124	0x28937b9c	1.6373885e-14
125	0x267bb4b2	8.7328006e-16
126	0x3c82a0a8	0.015945747
127	0x3d5c4725	0.053778786
128	0x999ae56c	-1.601589e-23
129	0x3cace6fe	0.02110624
130	0xbefe69f8	-0.49690223
131	0xbde2354f	-0.11045324
132	0x25593186	1.8838529e-16
133	0x3ad33696	0.001611429
134	0xbbff07c5	-0.0077829086
135	0xbd8c1160	-0.068392515
136	0xbe5242dd	-0.20533319
137	0xbd8a8f53	-0.06765618
138	0x3b6594b7	0.0035031268
139	0xbd637d38	-0.05553934
140	0xa2ec3d4e	-6.4032837e-18
141	0x3abdc4a0	0.0014478154
142	0xb8134668	-3.5113102e-05
143	0xbd9564a2	-0.07294585
144	0xbd7bcb89	-0.061473403
145	0xbd2644d3	-0.04059298
146	0xbc1f0aee	-0.009707196
147	0x3c2efd64	0.01068053
148	0xad9aca9a	-1.7597746e-11
149	0xbdb6847c	-0.08911988
150	0x3d11d1de	0.035600536
151	0xa0864c9b	-2.2751176e-19
152	0xbdc7f244	-0.097630054
153	0x3884d28e	6.333469e-05
154	0xbd3f9896	-0.046776377
155	0xbe5569f5	-0.208412
156	0x3b994e6d	0.0046785385
157	0xbce9b16c	-0.028526984
158	0xbd9bbf2e	-0.07604824
159	0x3a826226	0.0009947463
160	0xa3ea1d26	-2.5382676e-17
161	0xbdd2c466	-0.10291366
162	0xa8529b2d	-1.169099e-14
163	0x8e003258	-1.5801458e-30
164	0xbd95c7ad	-0.07313476
165	0xbefff279	-0.4998968
166	0x9e50c602	-1.1052375e-20
167	0xbdc051f1	-0.09390629
168	0x3c80408d	0.01565578
169	0xbd8c2912	-0.06843771
170	0xbd06adcc	-0.03288059
171	0xb0ba478c	-1.3553616e-09
172	0xbdc6287a	-0.09675689
173	0x96a1088b	-2.6016344e-25
174	0xb88088cd	-6.128997e-05
175	0xbce4894a	-0.027897496
176	0xbdd4d087	-0.10391336
177	0xbddf1f42	-0.10894634
178	0xbddc6b58	-0.10762662
179	0xbca52c57	-0.020162744
180	0x9ee4a340	-2.4207958e-20
181	0xbb517afb	-0.0031964171
182	0x3d13e8d1	0.036110703
183	0xb0e855f2	-1.6904649e-09
184	0xbe42fcd7	-0.19041763
185	0x20657b69	1.9437887e-19
186	0xa86b49ae	-1.3061097e-14
187	0xbd0f907a	-0.035049893
188	0xa763d760	-3.1619333e-15
189	0xbda7295e	-0.08162187
190	0x9983bd74	-1.3621602e-23
191	0x3b3384c7	0.0027392374
192	0xac59ec06	-3.0968574e-12
193	0x3cb705b8	0.022341594
194	0xb12c3c8b	-2.5063709e-09
195	0xbdc200d9	-0.09472818
196	0xa4201d53	-3.4719308e-17
197	0xbdae7f8c	-0.085204214
198	0xbac69e60	-0.0015153401
199	0xba804338	-0.0009785658
200	0xa5827509	-2.263071e-16
201	0xbad19886	-0.001599089
202	0xa964dae6	-5.0816034e-14
203	0xbd3cce2d	-0.046095062
204	0xbd66c218	-0.056337446
205	0xb2a8e1bc	-1.9660426e-08
206	0x39a115ad	0.00030724463
207	0x05201fbe	7.528994e-36
208	0xbd4d1212	-0.05006606
209	0xaeafed8e	-8.000277e-11
210	0xbdac8228	-0.08423263
211	0x3c7dd7f1	0.015493379
212	0xbe6256f0	-0.22103477
213	0xbeaeb894	-0.34125197
214	0xbe0330f0	-0.12811637
215	0xad0351c9	-7.464648e-12
216	0xaa2e3460	-1.5472476e-13
217	0xbdc7efa9	-0.097625084
218	0xbdadb163	-0.084810995
219	0xbaae5e22	-0.00133032
220	0xbc2e8eb0	-0.010654137
221	0xbd985ea1	-0.07439924
222	0xbb98485c	-0.004647298
223	0xbecf4dc2	-0.40489012
224	0xa9d7bac7	-9.580319e-14
225	0xbc85094c	-0.016239785
226	0xbd9f0656	-0.0776488
227	0xaa4b322d	-1.804743e-13
228	0xbe49571b	-0.19662134
229	0xbdf70f7e	-0.12063502
230	0xbc2327d7	-0.009958229
231	0xbb8eab5c	-0.0043539237
232	0xbdd89fef	-0.1057738
233	0xbdd217b9	-0.10258431
234	0xbda287dd	-0.0793607
235	0xbc2ccf1b	-0.010547425
236	0xb13fd805	-2.791695e-09
237	0xbdf95c14	-0.12175766
238	0xbde65fda	-0.11248751
239	0x3d1e141c	0.038593397
240	0xb11adfcc	-2.2537163e-09
241	0xbd6907b7	-0.056892123
242	0xbdca94c1	-0.09891654
243	0x3cb986c6	0.022647273
244	0xbdde190e	-0.108446226
245	0xbd376f74	-0.044784024
246	0xbe22e56d	-0.15907831
247	0xbde66df8	-0.112514436
248	0xbdddaab3	-0.10823574
249	0x3c7d2ac9	0.015452095
250	0xa947646b	-4.4273975e-14
251	0xbd821091	-0.06350816
252	0xa8259ae9	-9.192931e-15
253	0xa64e199c	-7.1505314e-16
254	0xbde33369	-0.1109379
255	0xbe03a33c	-0.12855238

linear_relu_stack.4.bias f4 [2]
0	0xbb2cc469	-0.0026362187
1	0x3c353d2f	0.011061951
