NNModel.pth (torch, 71255 bytes, 6 tensors)

linear_relu_stack.0.weight f4 [128, 3]
0.005038186 -6.0055034e-15 0.00064296054 0.082368985 0.005817906 0.09757674 -2.0811516e-38 -2.193856e-39
-3.073743e-25 0.031949718 0.0022378315 0.03797742 3.6780868e-28 2.4020374e-29 4.335202e-28 0.0029142254
0.00019174941 0.003382279 2.4661224e-30 1.5022388e-31 3.333443e-30 0.03367859 0.0024192713 0.029381271
0.016605986 0.00100841 0.021252338 0.014612235 3.0023614e-29 0.022108622 0.012059383 0.0006765749
0.010857359 -6.723351e-20 -3.81394e-40 -5.397813e-39 0.039235584 0.006997301 0.07983964 0.039452437
0.0022878554 0.046998713 2.847608e-39 -4.632775e-39 4.659303e-39 0.11041523 0.0074039195 0.122724496
-4.707414e-39 1.494212e-39 -7.4337445e-21 0.05511702 0.0035278948 0.06597575 -2.128873e-22 6.938372e-39
1.044476e-39 0.09026201 0.0060897097 0.1090385 0.03028996 0.0019628361 0.0341404 0.110248804
0.00797509 0.114271484 -1.0838002e-38 5.604418e-39 7.16969e-39 0.05814521 0.0037267203 0.05906366
0.03910458 0.0025312977 0.042819325 0.091209315 0.005765236 0.07934 0.10461285 0.007502628
0.13403597 0.07331575 0.004924341 0.0915831 -6.9833344e-23 8.02696e-40 -1.573662e-39 0.062080737
0.00371568 0.04527713 0.10089273 0.006838021 0.12282454 2.169587e-39 3.9838664e-32 -5.8663027e-28
-9.10898e-22 -3.597412e-39 4.3322505e-34 6.154817e-39 -1.532054e-39 -7.404517e-39 3.904497e-28 2.1381441e-29
4.6324345e-28 1.2995779e-28 7.292056e-30 1.4872325e-28 0.2116928 0.01133368 0.03188882 0.055989724
0.003865543 0.0716703 1.7816e-39 -1.1400955e-37 -9.185565e-22 0.042450286 0.002703999 0.05170459
1.2109766e-19 9.9956255e-21 1.4478171e-19 -2.088681e-22 8.00675e-40 -3.013739e-39 0.1835754 0.012682538
0.20078172 0.08595436 0.0059460355 0.10802653 9.330632e-30 7.7067836e-31 1.0427044e-29 1.92166e-05
1.306231e-06 2.2032567e-05 7.205802e-39 5.762094e-39 5.703255e-39 0.026651667 0.0020456272 0.021566179
6.087866e-06 -1.28306925e-23 9.344273e-06 0.065384105 0.004577788 0.06165221 2.0342479e-30 8.3034917e-29
1.0469065e-28 0.004790977 0.00030241683 0.0056002783 0.06247311 0.0041013053 0.077717796 0.17665607
0.009605898 0.16447014 1.9513795e-11 9.95401e-40 -1.6883126e-25 0.028193967 0.0019457033 0.035974428
1.496005e-39 4.97559e-40 -1.4319411e-38 0.010888092 0.00063327036 0.012838545 -5.29058e-39 1.59212e-39
2.53011e-39 2.975155e-17 2.0762378e-18 3.51277e-17 0.025908576 0.0015330131 0.030700054 0.05602202
0.0035665568 0.076632395 0.031494364 0.0021471365 0.04631713 0.15197228 0.011129664 0.18277612
-3.9282974e-24 -1.76653e-40 4.278533e-39 -6.723895e-39 -1.0912627e-24 1.07130395e-23 0.04896856 0.0034354979
0.056624107 0.104271226 0.0073021506 0.12637635 0.021552557 0.0014022635 0.026578242 0.07100025
0.004662572 0.08596707 0.10813655 0.00769307 0.12776102 0.01641242 0.001027614 0.019382728
3.959158e-05 2.4447306e-06 4.7488003e-05 0.11073617 0.0051794276 0.09961781 1.7241126e-28 1.11804905e-29
2.0784532e-28 0.019761585 0.001567042 0.01615625 1.7885376e-35 -2.173998e-39 -2.1105649e-23 0.0056754784
0.0003896249 0.0068751955 0.039330658 0.0023146581 0.047098543 0.15665029 0.0077259564 0.15704532
0.014628662 0.0010042719 0.017257571 0.030249981 0.0021620146 0.0303745 7.3002773e-38 6.839348e-39
5.5098243e-38 -6.220585e-39 -5.485002e-39 7.94804e-40 0.075885676 0.0071324017 0.07154612 -5.856612e-39
00000000: 5e17 a53b fe5e d8a7 5a8c 283a 12b1 a83d
00000010: 22a4 be3b 50d6 c73d 0a9e e280 94e3 1780
00000020: 6741 be96 b5dd 023d 95a8 123b 368e 1b3d
00000030: 5f20 e911 7598 f30f 5663 0912 97fc 3e3b
00000040: 5710 4939 3aa9 5d3b 5c13 480e 7200 430c
00000050: 7438 870e 90f2 093d a38c 1e3b feb0 f03c
00000060: 4709 883c a02c 843a 6219 ae3c 2868 6f3c
00000070: e13c 1810 241d b53c b894 453c 2c5c 313a
00000080: 10e3 313c 2ac0 9e9f 2c27 0480 e8c6 3a80
00000090: 7eb5 203d 9d49 e53b f782 a33d e198 213d
000000a0: d8ef 153b b981 403d f901 1f00 4b72 3280
000000b0: 3ebc 3200 6121 e23d 949c f23b fb56 fb3d
000000c0: 5b42 3380 4145 1000 626b 0c9e 62c2 613d
000000d0: 4134 673b 4b1e 873d b7ae 809b 5c8d 4b00
000000e0: 935f 0b00 4adb b83d 308c c73b 944f df3d
000000f0: a622 f83c eda2 003b ced6 0b3d 20ca e13d
00000100: f4a9 023c 2b07 ea3d f103 7680 d606 3d00
00000110: 2e12 4e00 ac29 6e3d fe3b 743b bdec 713d
00000120: 202c 203d 21e4 253b 5163 2f3d f3cb ba3d
00000130: 4eea bc3b 037d a23d 433f d63d 9bd8 f53b
00000140: ba40 093e 9126 963d 5e5c a13b ec8f bb3d
00000150: bfd8 a89a 97bd 0800 bb22 1180 5f48 7e3d
00000160: c482 733b 8374 393d d9a0 ce3d 7a11 e03b
00000170: 6f8b fb3d ed9f 1700 abda 4e0b 1ae9 3992
00000180: a9a6 899c 1f2c 2780 b6f6 0f08 2005 4300
00000190: beae 1080 c8a0 5080 167a f711 65d5 d80f
000001a0: c6ce 1212 b7bd 2411 85e6 130f 7487 3c11
000001b0: ffc5 583e e6b0 393c da9d 023d 7b55 653d
000001c0: 0d55 7d3b e1c7 923d 6066 1300 882e 1b82
000001d0: efce 8a9c 5ae0 2d3d 9335 313b 31c8 533d
000001e0: 86f7 0e20 e1cf 3c1e 96ed 2a20 8c81 7c9b
000001f0: f5b7 0800 14d1 2080 31fb 3b3e 6bca 4f3c
00000200: b999 4d3e d708 b03d f6d6 c23b 033d dd3d
00000210: 693f 3d0f 7419 7a0d 4f7c 530f 5633 a137
00000220: c151 af35 94d2 b837 d876 4e00 60be 3e00
00000230: 5b1a 3e00 9954 da3c ee0f 063b 8eab b03c
00000240: 5f46 cc36 832e 7899 59c5 1c37 1ae8 853d
00000250: 4501 963b 0787 7c3d ad09 250e be84 d210
00000260: 0fb6 0411 a1fd 9c3b b38d 9e39 8a82 b73b
00000270: cee3 7f3d 3e64 863b 822a 9f3d 54e5 343e
00000280: 0e62 1d3c dc6a 283e 29a5 ab2d c6d6 0a00
00000290: c300 5196 09f7 e63c f806 ff3a ec59 133d
000002a0: 414a 1000 fe6a 0500 b1ec 9b80 f863 323c
000002b0: 0e02 263a c358 523c fc9b 3980 2f56 1100
000002c0: eb8c 1b00 6e34 0924 0633 1922 78ff 2124
000002d0: 393e d43c 62ef c83a ae7e fb3c 5877 653d
000002e0: e5bc 693b 72f1 9c3d 3c00 013d f9b6 0c3b
000002f0: 08b7 3d3d 9f9e 1b3e 3259 363c aa29 3b3e
00000300: f9f7 9798 70ec 0180 cf96 2e00 7c37 4980
00000310: 5fdd a897 6738 4f19 4293 483d 1726 613b
00000320: aeee 673d 278c d53d e146 ef3b cd68 013e
00000330: fd8e b03c 28cc b73a 9dba d93c 9468 913d
00000340: 7dc8 983b 810f b03d b276 dd3d 2616 fc3b
00000350: c9d3 023e 5773 863c 01b1 863a 87c8 9e3c
00000360: 230f 2638 2710 2436 db2d 4738 a5c9 e23d
00000370: 30b8 a93b 6c04 cc3d a78e 5a11 6dc4 620f
00000380: d5bc 8311 0ce3 a13c 3465 cd3a 1d5a 843c
00000390: a030 be05 39ac 1780 0e1f cc99 5df9 b93b
000003a0: 9246 cc39 5249 e13b 2f19 213d 85b1 173b
000003b0: 67ea 403d ef68 203e 052a fd3b 7dd0 203e
000003c0: 0ead 6f3c c6a1 833a c05f 8d3c cfce f73c
000003d0: 96b0 0d3b f2d3 f83c 82bb c601 5279 4a00
000003e0: dffd 9501 76bc 4380 f4b9 3b80 97a7 0800
000003f0: f369 9b3d ecb6 e93b c686 923d dac5 3f80

linear_relu_stack.0.bias f4 [128]
-0.0064521628 0.14230078 -1.207998e-39 0.05335629 6.3759124e-28 0.0049256654 4.099546e-30 0.07817761
0.028087348 -0.05857922 0.01614309 -3.558797e-36 0.24499013 0.067037724 -1.5778312e-24 0.17717199
-9.3986e-40 0.09397473 4.8923462e-29 0.1645417 0.055114415 0.2133266 1.1795197e-38 0.09529092
0.073039934 0.14779508 0.1857057 0.111054964 5.03159e-40 0.10501948 0.17441098 5.072478e-39
4.88605e-40 -5.177965e-27 6.566308e-28 1.8317863e-28 0.3668534 0.1010142 1.145487e-39 0.07417864
2.2065914e-19 5.848058e-39 0.32435068 0.15000384 1.5886524e-29 3.203553e-05 8.788704e-39 0.067097336
-0.00034067 0.1256826 4.0745467e-30 0.008062363 0.10009915 0.21448457 -1.1022498e-10 0.047188055
-3.880672e-23 0.019095061 -1.0846446e-19 4.856527e-17 0.04346941 0.06422856 0.04399861 0.27895567
3.560988e-39 -1.2562942e-12 0.08774916 0.18046623 0.037511114 0.1264686 0.1943433 0.028826874
6.7436005e-05 0.09310059 3.2891725e-28 0.050502364 -3.69965e-40 0.009912981 0.06731334 0.13945128
0.026162967 0.061172068 -2.7209457e-25 -6.6231366e-21 0.2397124 6.496812e-39 -5.0142907e-20 3.210152e-28
0.33452922 0.19610684 1.1508988e-27 2.08255e-40 0.22052434 0.18260443 0.22858234 3.0155422e-38
0.1488722 0.00038482476 4.2785583e-28 -1.75839e-39 0.122563265 1.6923794e-08 0.04852 0.071368754
0.008356909 0.072308965 -1.25898e-39 0.061183 -0.0041470295 2.5528135e-29 1.6001393e-12 1.2588097e-28
-1.13381596e-10 0.06065617 -0.03208367 0.1227429 0.11432993 0.23528294 -1.63675e-38 0.0005335132
0.041857548 4.70719e-39 6.3754186e-23 3.7405057e-28 0.06990264 0.11256571 -4.9823946e-05 -6.664722e-26
00000000: aa6c d3bb 4cb7 113e 6827 0d80 208c 5a3d
00000010: 8c0f 4a12 7a67 a13b 1f4c a60e 951b a03d
00000020: 7017 e63c c4f0 6fbd 833e 843c de5f 9784
00000030: b1de 7a3e 134b 893d 5528 f497 936c 353e
00000040: f33b 0a80 d375 c03d 4912 7810 9f7d 283e
00000050: a7bf 613d 4a72 5a3e 3670 8000 e327 c33d
00000060: f695 953d 9857 173e a329 3e3e c970 e33d
00000070: 9a7a 0500 7414 d73d cb98 323e 013c 3700
00000080: 0852 0500 ce1e cd93 3818 5012 dd34 6811
00000090: 35d4 bb3e 88e0 ce3d 2779 0c00 f9ea 973d
000000a0: 1141 8220 02ae 3f00 4b11 a63e 9b9a 193e
000000b0: c61b a10f e35d 0638 55b3 5f00 546a 893d
000000c0: f49b b2b9 f1b2 003e 8348 a50e 0018 043c
000000d0: c800 cd3d d8a1 5b3e 2663 f2ae 4348 413d
000000e0: 64a8 3b9a 3f6d 9c3c 5f0d 00a0 c0f7 5f24
000000f0: fb0c 323d 438a 833d e337 343d 47d3 8e3e
00000100: 96c6 2600 c5ce b0ab d5b5 b33d 24cc 383e
00000110: 41a5 193d fc80 013e ee01 473e 5626 ec3c
00000120: 6e6c 8d38 86ab be3d e079 d011 91db 4e3d
00000130: 5007 0480 0e6a 223c 94db 893d 51cc 0e3e
00000140: b853 d63c 908f 7a3d 1b6b a896 0c37 fa9d
00000150: 2b77 753e 78be 4600 0ecb 6c9f b277 cb11
00000160: 6a47 ab3e 3bd0 483e 005e b612 8844 0200
00000170: 22d1 613e a8fc 3a3e 7d11 6a3e 862e 2401
00000180: f471 183e 4ec2 c939 ca97 0712 ad25 1380
00000190: 7302 fb3d d15f 9132 e8bc 463d c829 923d
000001a0: 6beb 083c b916 943d 86b5 0d80 079b 7a3d
000001b0: cee3 87bb 6a71 0110 1833 e12b b692 1f11
000001c0: 2a54 f9ae 9b72 783d 2b6a 03bd a160 fb3d
000001d0: cf25 ea3d 03ee 703e ee39 b280 77db 0b3a
000001e0: d272 2b3d bb41 3300 ee25 9a1a 2d15 ed11
000001f0: 1e29 8f3d da88 e63d 0efa 50b8 b202 a595

linear_relu_stack.2.weight f4 [128, 128]
-6.672763e-17 2.8792196e-05 3.39186e-40 1.0967128e-05 1.139999e-31 1.3724273e-06 1.3405267e-33 1.3167599e-05
5.892369e-06 1.5274411e-38 3.437779e-06 -4.795553e-39 3.5785055e-05 1.3713612e-05 1.841934e-39 3.6428984e-05
-6.56823e-39 1.9379751e-05 2.3883047e-38 3.276627e-05 1.0780991e-05 3.9763076e-05 -1.7328933e-38 1.8990122e-05
1.4024642e-05 2.8556888e-05 3.813635e-05 2.4272254e-05 6.802585e-39 1.926735e-05 3.5419376e-05 -2.468494e-39
-1.609823e-39 -1.437145e-39 1.1635924e-31 2.809266e-32 5.697339e-05 2.0484513e-05 3.50024e-39 1.506982e-05
3.938848e-23 -5.852288e-39 6.363263e-05 3.070661e-05 2.8774676e-33 5.7018976e-09 5.334082e-39 9.754122e-06
5.441947e-39 2.3032137e-05 1.17609136e-32 1.5326588e-06 2.1255166e-05 4.833254e-05 -3.471208e-39 9.921349e-06
-1.1977e-40 3.1153302e-06 3.330477e-39 1.3448853e-20 8.934954e-06 1.6782624e-05 1.0593836e-05 5.50023e-05
-4.639572e-39 -4.579672e-39 1.7370628e-05 3.7668884e-05 7.68725e-06 2.5555071e-05 3.8705708e-05 4.64527e-06
1.1270663e-08 2.5469612e-05 5.6924e-32 8.1415665e-06 6.666109e-38 1.576594e-06 1.3748903e-05 3.817994e-05
5.0954873e-06 1.11138115e-05 -3.370211e-39 3.262872e-39 3.7042537e-05 -2.051658e-39 -2.4809014e-38 9.7695576e-32
6.6302055e-05 3.325361e-05 8.381866e-32 -1.4831031e-37 4.1741987e-05 3.668285e-05 4.3516033e-05 4.26401e-39
2.75627e-05 1.2639647e-07 9.335017e-32 -5.264953e-39 2.5068572e-05 2.8391935e-12 1.0614484e-05 1.4610614e-05
1.6964644e-06 1.4828468e-05 -6.03838e-39 1.275717e-05 6.35744e-40 -2.15873e-39 2.7733378e-16 3.95301e-32
6.120768e-38 1.2404799e-05 2.9693382e-07 2.2492033e-05 2.3603101e-05 4.799197e-05 -8.890107e-39 8.700263e-08
8.766564e-06 3.870081e-39 1.5332633e-25 1.0016119e-31 1.4361292e-05 2.2170398e-05 5.1962105e-30 -6.908532e-39
7.923023e-14 0.00789742 -5.403002e-39 0.0029581937 3.404414e-29 0.00027132267 3.4180738e-31 0.0035560406
0.0016061569 -4.333726e-39 0.0009382913 1.358148e-39 0.009604092 0.0037148686 -4.712972e-39 0.010001042
9.6757e-41 0.0070626526 3.703804e-39 0.009101599 0.0029337925 0.010733291 2.626615e-39 0.005140333
0.0038120688 0.0077398326 0.010190932 0.0065524885 -1.108189e-39 0.0052230633 0.008909549 -6.220273e-39
5.183844e-39 -2.128316e-39 5.7490646e-29 1.4128879e-30 0.01504711 0.0055466043 -1.224539e-39 0.004087533
1.5829896e-20 -3.121698e-39 0.01713136 0.0084422175 7.1202307e-31 1.7741966e-06 6.62559e-39 0.0029334668
-2.905305e-32 0.006221499 2.8611344e-30 0.00044851494 0.005746413 0.013041405 9.84171e-40 0.0026891923
-4.25492e-40 0.0010379241 -2.226618e-39 2.1743528e-18 0.0024307654 0.00457773 0.002880309 0.015945114
-4.993094e-39 3.608484e-39 0.00471268 0.008404899 0.0020871793 0.0069117364 0.0111164795 0.0015680039
3.7416382e-06 0.006961597 1.3640095e-29 0.002201579 -2.486055e-39 0.0005435393 0.003738667 0.0105356695
0.0014045156 0.0030152637 -1.376434e-39 -3.369402e-38 0.009962443 -2.72742e-40 3.208755e-39 2.4339098e-29
0.02103344 0.008968174 2.4930316e-29 3.943742e-39 0.01119387 0.0106578935 0.011750913 7.68546e-39
0.0074607264 2.1107551e-05 2.686319e-29 -7.77377e-40 0.0070524537 1.0724555e-09 0.0028605794 0.0040206113
0.0004602227 0.0040037883 6.720679e-39 0.0034653982 8.8190425e-35 2.640779e-39 1.198188e-13 8.6030636e-30
-4.026428e-39 0.0033682017 9.141479e-05 0.0060838745 0.0062484797 0.015736053 6.875235e-39 2.9200131e-05
0.0023758397 -1.106671e-39 1.1218107e-24 1.7736521e-29 0.0037696138 0.0060076374 -1.5097802e-27 6.9982056e-38
00000000: 0add 99a4 c586 f137 83b1 0300 75ff 3737
00000010: f7fa 130c 3e34 b835 b3bb de08 68ea 5c37
00000020: 10b7 c536 d852 a600 98b4 6636 0d38 3480
00000030: e917 1638 8413 6637 900e 1400 53cb 1838
00000040: 8e85 4780 b391 a237 1c08 0201 846e 0938
00000050: 01e0 3437 47c7 2638 04b2 bc80 fa4c 9f37
00000060: 614b 6b37 738d ef37 98f4 1f38 459c cb37
00000070: d712 4a00 52a0 a137 448f 1438 28e1 1a80
00000080: 8887 1180 2da6 0f80 fd0a 170c 8ddd 110b
00000090: b6f6 6e38 28d6 ab37 3f1d 2600 62d4 7c37
000000a0: 9478 3e1a ccb9 3f80 8272 8538 f9ca 0038
000000b0: f80c 6f09 6cea c331 4015 3a00 a3a5 2337
000000c0: ef41 3b00 2335 c137 be43 740a c1b5 cd35
000000d0: 1f4d b237 abb8 4a38 51cc 2580 df73 2637
000000e0: df4d 0180 f710 5136 0444 2400 aa0a 7e1e
000000f0: 56e7 1537 69c8 8c37 2ebc 3137 45b2 6638
00000100: 3d85 3280 43de 3180 24b7 9137 a8fe 1d38
00000110: 7df8 0037 195f d637 f057 2238 91de 9b36
00000120: e6a0 4132 93a7 d537 7dc8 930b c397 0837
00000130: 0078 b501 5b9b d335 17ab 6637 6623 2038
00000140: e7f9 aa36 7575 3a37 c7b2 2480 8f87 2300
00000150: 1f5e 1b38 3057 1680 b812 0781 d9a1 fd0b
00000160: a50b 8b38 cb79 0b38 0e9b d90b 9ade 4982
00000170: 1e14 2f38 e9db 1938 fc84 3638 536e 2e00
00000180: 7336 e737 99b7 0734 d459 f20b 8c54 3980
00000190: 594a d237 5dca 472c dd14 3237 1c20 7537
000001a0: 13b2 e335 c9c7 7837 8cc0 4180 a107 5637
000001b0: 32ec 0600 a981 1780 3edf 9f25 8440 4d0b
000001c0: 879f a601 351e 5037 466a 9f34 46ad bc37
000001d0: 46ff c537 fc4a 4938 00ce 6080 34d6 ba33
000001e0: 1b14 1337 3624 2a00 0ecf 3d16 4404 020c
000001f0: 48f1 7037 91fa b937 89c8 d20e 2d3a 4b80
00000200: 1e69 b229 2e64 013c 5fd5 3a80 41de 413b
00000210: d29f 2c10 5040 8e39 7ed8 dd0c 760c 693b
00000220: af85 d23a aa30 2f80 aaf7 753a f7c9 0e00
00000230: 7b5a 1d3c 2775 733b d951 3380 69db 233c
00000240: b80d 0100 d36d e73b b354 2800 e01e 153c
00000250: df44 403b afda 2f3c ef99 1c00 3d70 a83b
00000260: e7d3 793b 6c9e fd3b def7 263c 42b6 d63b
00000270: 2e11 0c80 3b26 ab3b 5bf9 113c 97bb 4380
00000280: 7372 3800 e12c 1780 90c1 9110 1141 e50d
00000290: 2788 763c 4ac0 b53b 8455 0d80 b6f0 853b
000002a0: 5782 951e 06fe 2180 1157 8c3c 3a51 0a3c
000002b0: 9010 670d ee20 ee35 7325 4800 683f 403b
000002c0: 21da 168b b7dd cb3b 701f 680e a826 eb39
000002d0: 684c bc3b 9eab 553c 78b7 0a00 293d 303b
000002e0: 19a2 0480 f40a 883a e83e 1880 5d70 2022
000002f0: 7a4d 1f3b c800 963b 91c3 3c3b 549f 823c
00000300: b75e 3680 fc4a 2700 d36c 9a3b b4b4 093c
00000310: 0fc9 083b d97b e23b e521 363c 7b85 cd3a
00000320: db18 7b36 1c1e e43b b653 8a0f 5e48 103b
00000330: 1c12 1b80 4e7c 0e3a 6c04 753b cd9d 2c3c
00000340: b917 b83a bb9b 453b f0fc 0e80 9c72 3781
00000350: 8439 233c 4bf8 0280 b4f0 2200 e9d3 f60f
00000360: 524e ac3c 40ef 123c cdd2 fc0f 8cf1 2a00
00000370: 7e66 373c 729e 2e3c e786 403c f0af 5300
00000380: 1c79 f43b 1f10 b137 6a36 0810 0377 0880
00000390: 4518 e73b ac65 9330 8f78 3b3b 55bf 833b
000003a0: 0c4a f139 3632 833b 852e 4900 bc1b 633b
000003b0: 4b73 ea06 6bc1 1c00 6be7 062a a97d 2e0f
000003c0: 0bd8 2b80 0cbd 5c3b f1b5 bf38 3d5b c73b
000003d0: 0cc0 cc3b e5e8 803c 5cdd 4a00 cef2 f437
000003e0: fab3 1b3b f30c 0c80 8097 ad17 a4de b30f
000003f0: a00b 773b b7db c43b f63b ef92 6082 be01

linear_relu_stack.2.bias f4 [128]
0.000110504225 0.028185662 0.021096254 0.20426297 0.006123576 0.0020464803 0.0037422774 0.27184713
0.032372538 0.028527537 0.12109321 1.0230766e-05 0.05356957 -0.0071719987 1.0817178e-10 0.0013883857
-0.002605435 0.050396018 0.00084735075 0.037353903 -5.270457e-05 1.2791941e-10 -5.057275e-26 1.1915409e-20
0.023531264 2.1080729e-10 0.00989453 0.030960042 3.0403106e-18 0.15866365 0.018676596 -0.0010575673
9.565956e-16 -3.1346767e-06 0.022121156 0.003942912 1.5485099e-12 0.03903026 2.1340873e-05 0.028117303
0.0317514 0.2690257 0.08788749 -0.0009948565 3.1617186e-05 1.7852005e-11 3.3007786e-23 0.0125834
0.027432302 -0.000102377664 1.4751285e-19 -0.042513844 0.027500411 0.059288546 0.036573835 0.010226026
0.00078605715 0.057110585 2.6936224e-30 0.0510142 0.061136194 0.04524002 0.0007986775 0.026109423
0.022995412 0.014253405 0.033786695 0.051636428 0.004022353 1.1955699e-15 0.00848618 4.3601792e-11
-0.00035170946 0.059732944 0.27965826 1.9205633e-19 1.0543079e-09 0.021473395 0.025047144 0.006845113
-0.0062808464 -0.0002467946 0.03637102 0.02478763 0.003530215 0.00026890563 0.026056057 7.994783e-21
-5.686706e-16 0.0016926838 0.049614415 -0.0015039131 -1.4858888e-06 0.0035184142 0.0019036354 4.4518906e-06
0.042155467 0.00016423104 3.459568e-06 0.045487344 3.4512916e-20 -0.009115147 -2.7054224e-08 0.047821425
0.064102516 0.0052969027 -0.00057040533 0.01203281 -5.4622004e-05 -1.4748201e-05 -0.010510004 -0.012727046
0.051333044 0.030845752 0.033847917 0.15095584 0.03849122 0.10574812 2.0677385e-11 0.00462574
0.03830347 -0.011715654 -5.5246284e-05 3.0033438e-15 3.8960597e-19 0.24141733 1.9712727e-08 0.016091563
00000000: 81be e738 9ee5 e63c 0dd2 ac3c 502a 513e
00000010: 47a8 c83b 3e1e 063b ff40 753b 8c2f 8b3e
00000020: 1199 043d 95b2 e93c b8ff f73d cea4 2b37
00000030: c46b 5b3d 1603 ebbb 4cdf ed2e 7efa b53a
00000040: f2bf 2abb 0e6c 4e3d bf20 5e3a 6800 193d
00000050: 1a0f 5db8 1da6 0c2f 946c 7a95 6213 611e
00000060: a3c4 c03c fac8 672f ab1c 223c ea9f fd3c
00000070: d855 6022 b978 223e a9ff 983c 129e 8aba
00000080: 26dc 8926 565d 52b6 6d37 b53c 8b33 813b
00000090: f3ee d92b 32de 1f3d 2d05 b337 4256 e63c
000000a0: c20d 023d bdbd 893e 5bfe b33d d865 82ba
000000b0: b29c 0438 2407 9d2d a99d 1f1a 9b2a 4e3c
000000c0: b5b9 e03c 97b3 d6b8 0627 2e20 ff22 2ebd
000000d0: 8b48 e13c 8cd8 723d 72ce 153d 108b 273c
000000e0: 670f 4e3a caec 693d 5988 5a0e 44f4 503d
000000f0: f269 7a3d 994d 393d 575e 513a 6ee3 d53c
00000100: e060 bc3c 1d87 693c eb63 0a3d b880 533d
00000110: f1cd 833b be4c ac26 9e09 0b3c 41c3 3f2e
00000120: a565 b8b9 88aa 743d 5e2f 8f3e 77bd 6220
00000130: 29e7 9030 f9e8 af3c ab2f cd3c f84c e03b
00000140: 8fcf cdbb 3664 81b9 c7f9 143d 6e0f cb3c
00000150: 2e5b 673b e7fb 8c39 8373 d53c 6604 171e
00000160: 7ce8 23a6 0bdd dd3a 7c38 4b3d f31e c5ba
00000170: c06e c7b5 3295 663b 6883 f93a 7361 9536
00000180: 36ab 2c3d 6f35 2c39 ed2a 6836 f050 3a3d
00000190: 8efb 221f b357 15bc de64 e8b2 66e0 433d
000001a0: 2e48 833d a491 ad3b 4187 15ba 4325 453c
000001b0: ee19 65b8 0a6f 77b7 2732 2cbc 1a85 50bc
000001c0: 9942 523d 3bb0 fc3c 1da4 0a3d 2b94 1a3e
000001d0: f8a8 1d3d 7892 d83d 55e1 b52d 8593 973b
000001e0: 19e4 1c3d 04f3 3fbc 3fb8 67b8 ea69 5827
000001f0: 97fb e520 1b36 773e bf54 a932 74d2 833c

linear_relu_stack.4.weight f4 [2, 128]
0.00018033102 0.023656638 -0.009083182 0.33384058 -0.019904952 -0.03464417 0.006097008 0.44457003
0.05105179 0.060305946 0.19781964 1.7810162e-05 0.015079953 -0.012533258 1.2566323e-10 0.12512201
-0.029605804 0.077011764 -0.00072132744 0.07782013 -2.788647e-39 2.2404939e-10 6.3844966e-26 2.6016922e-20
0.09090871 2.1021218e-10 0.11685013 -0.0053547774 4.9075654e-18 0.2591639 0.0453455 -0.004115031
1.4891887e-15 1.9437148e-05 0.10442704 0.006491684 1.3061523e-12 0.06355924 3.474964e-05 0.09571891
0.08274815 0.43994504 0.14327471 -0.019251198 5.2633164e-05 3.3529846e-11 2.6107743e-23 0.021139637
0.056398183 -0.0064335773 2.516946e-19 -0.002294671 0.05842304 0.049363926 0.02804461 -0.0061970307
0.12072524 0.10117022 1.4592506e-30 0.08937919 0.11490898 0.11800324 0.0013073293 0.102792926
0.1154685 -0.0016609322 0.048373837 0.06757393 -0.04487403 1.6018166e-15 0.013847852 5.8146266e-11
-0.01502664 0.06355446 0.45737457 2.9206326e-19 1.8131496e-09 0.035421528 0.06610738 0.0033410147
-0.002400406 0.008809109 0.08763814 -0.029840384 -0.00035982046 0.00043626223 0.0839576 1.620716e-20
0.0005438247 -7.689713e-05 0.07668277 -0.0006183273 0.011477006 1.3091978e-05 0.003343923 1.3350046e-06
0.06860795 -0.0012905572 5.5953715e-06 0.08524751 8.850633e-20 -0.026504572 -4.0743e-41 0.07868484
0.06913317 -0.027720897 -0.028580572 0.03538609 -0.021055246 -0.0001572652 -0.024867639 -0.0233406
0.077044785 0.08976898 0.07773342 0.24659224 0.104527645 0.17273274 4.1314455e-11 -0.039629422
0.10006901 -0.0029155177 -0.030750345 6.6628806e-15 1.0808771e-18 0.39469835 2.8263011e-08 0.09537224
-0.00018032135 -0.07372006 -0.07817515 -0.33382285 0.007772153 -0.020605212 -0.0060982066 -0.44454703
-0.055276807 -0.10376173 -0.1978124 -2.116528e-05 -0.11799224 -0.010354609 -1.598577e-10 -0.11680353
-0.012017453 -0.098351724 -0.0034817758 -0.10898197 2.774724e-39 -1.9090553e-10 3.7428236e-26 -1.7048608e-20
0.013791529 -1.9643395e-10 -0.071681276 -0.10772739 -4.4572437e-18 -0.25914964 -0.1153586 -0.00042103874
-1.4285142e-15 3.7911374e-05 -0.06691959 -0.006489976 -2.2031378e-12 -0.063556254 -3.475636e-05 -0.06391922
-0.11307981 -0.43992227 -0.14326675 -0.018292183 -4.9534712e-05 -2.8878807e-11 -4.4252486e-24 -0.021137275
-0.035095718 -0.0055561676 -2.652659e-19 0.04868871 -0.0324466 -0.08976903 -0.110248506 0.035480652
-0.11681141 -0.066733524 -1.1717123e-30 -0.057205956 -0.09265554 -0.12323386 -0.001303233 -0.09229893
-0.007455132 0.01987974 -0.061324727 -0.08970101 -0.05754086 -1.2573948e-15 -0.013843462 -5.7518778e-11
-0.0023482323 -0.08460327 -0.45735088 -3.9423095e-19 -2.331452e-09 -0.035420064 -0.021355497 0.010616488
0.0010949067 0.009270652 -0.036733672 0.02192167 0.0062023755 -0.00043623892 -0.082160056 -9.180133e-21
0.0003885404 3.4846562e-05 -0.1126011 -0.0001742546 0.0067358627 -1.3069327e-05 -0.0029001166 -1.3247379e-06
-0.068604186 -0.00015071295 -5.622439e-06 -0.043028407 -8.344823e-20 -0.010748491 -3.38573e-40 -0.07920858
-0.09972326 0.012744079 -0.029965576 -0.10600181 -0.023747941 -0.00013859372 -0.0020822175 -0.0060078325
-0.08145328 -0.012259504 -0.051119283 -0.2465788 -0.020647056 -0.17272367 -5.1362595e-11 -0.03297742
-0.028220732 0.015160168 -0.0354395 -6.0199546e-15 -7.4663354e-19 -0.39467752 -2.7974565e-08 -0.0594718
00000000: 3d17 3d39 91cb c13c a0d1 14bc 27ed aa3e
00000010: b60f a3bc 0ce7 0dbd 69c9 c73b af9e e33e
00000020: af1b 513d 5e03 773d 3b91 4a3e 0867 9537
00000030: e811 773c 4b58 4dbc 0e2b 0a2f fc1f 003e
00000040: df87 f2bc 58b8 9d3d 7717 3dba 2960 9f3d
00000050: 9d5d 1e80 4c58 762f 8e12 9e15 0fb9 f51e
00000060: 592e ba3d 7821 672f 1f4f ef3d 2177 afbb
00000070: a50e b522 21b1 843e 34bc 393d 62d7 86bb
00000080: 5e9d d626 f50c a337 d8dd d53d 31b8 d43b
00000090: 19d3 b72b 592b 823d 24c0 1138 4708 c43d
000000a0: dd77 a93d 7a40 e13e 9bb6 123e b0b4 9dbc
000000b0: 6ec2 5c38 4077 132e a47f fc19 082d ad3c
000000c0: c801 673d c2d0 d2bb 0393 9420 3162 16bb
000000d0: ff4c 6f3d d431 4a3d cfbd e53c 7610 cbbb
000000e0: cb3e f73d 5532 cf3d e6c6 ec0d 700c b73d
000000f0: 6655 eb3d afab f13d b15a ab3a 1985 d23d
00000100: c07a ec3d a3b3 d9ba a523 463d 3364 8a3d
00000110: d5cd 37bd 9ad8 e626 1ae2 623c e0ba 7f2e
00000120: 4c32 76bc d728 823d 002d ea3e 5a67 ac20
00000130: 8832 f930 2a16 113d 4e63 873d edf4 5a3b
00000140: 2150 1dbb 1554 103c a07b b33d d273 f4bc
00000150: 49a6 bcb9 20ba e439 f6f1 ab3d 8212 991e
00000160: 758f 0e3a d543 a1b8 db0b 9d3d 3e17 22ba
00000170: 0d0a 3c3c 9ea5 5b37 b825 5b3b 692e b335
00000180: 5382 8c3d ea27 a9ba e0bf bb36 3f96 ae3d
00000190: cbfa d01f 1e20 d9bc 9371 0080 8425 a13d
000001a0: b195 8d3d ef16 e3bc ce21 eabc 01f1 103d
000001b0: 0d7c acbc 8ee7 24b9 38b7 cbbc c934 bfbc
000001c0: a8c9 9d3d cdd8 b73d b332 9f3d ad82 7c3e
000001d0: 9712 d63d dae0 303e f1b3 352e 7652 22bd
000001e0: fbf0 cc3d 4512 3fbb 26e8 fbbc 3a0e f027
000001f0: 6282 9f21 e715 ca3e 05c7 f232 8552 c33d
00000200: a514 3db9 8bfa 96bd 4b1a a0bd d4ea aabe
00000210: 8bad fe3b 43cc a8bc 77d3 c7bb ab9b e3be
00000220: ef69 62bd 0881 d4bd 558f 4abe 188c b1b7
00000230: eaa5 f1bd 61a6 29bc f1c3 2faf b036 efbd
00000240: dae4 44bc a16c c9bd 812e 64bb f031 dfbd
00000250: cd36 1e00 21e7 51af ed55 3915 0105 a19e
00000260: def5 613c 3efb 57af a2cd 92bd 2ea0 dcbd
00000270: 7a71 a4a2 43af 84be 2141 ecbd ddbe dcb9
00000280: dfde cda6 0703 1f38 230d 89bd dda9 d4bb
00000290: 3408 1bac c829 82bd 5bc7 11b8 14e8 82bd
000002a0: 6396 e7bd 7e3d e1be 85b4 12be 7dd9 95bc
000002b0: 7ec3 4fb8 4b05 fead 8a31 ab98 1428 adbc
000002c0: 87c0 0fbd 8310 b6bb d995 9ca0 d06d 473d
000002d0: bae6 04bd d3d8 b7bd f8c9 e1bd 2954 113d
000002e0: d23a efbd 96ab 88bd 061f be8d cb50 6abd
000002f0: 30c2 bdbd 0962 fcbd 3ed1 aaba 3907 bdbd
00000300: 2e4a f4bb d6da a23c a32f 7bbd 2ab5 b7bd
00000310: f7af 6bbd ae35 b5a6 b0cf 62bc 63f8 7cae
00000320: cde4 19bb 7b44 adbd e529 eabe 7fb6 e8a0
00000330: 5637 20b1 a114 11bd b9f1 aebc c7f0 2d3c
00000340: f982 8f3a efe3 173c 0c76 16bd 1395 b33c
00000350: 4c3d cb3b ffb6 e4b9 8843 a8bd 6668 2d9e
00000360: 02b5 cb39 3628 1238 689b e6bd 1db8 36b9
00000370: 83b8 dc3b 5544 5bb7 e20f 3ebb a6cd b1b5
00000380: 5a80 8cbd b308 1eb9 62a8 bcb6 8e3e 30bd
00000390: 5c09 c59f 701a 30bc ceaf 0380 1c38 a2bd
000003a0: b53b ccbd 8bcc 503c 5e7a f5bc 7a17 d9bd
000003b0: 0b8b c2bc 7853 11b9 d075 08bb 5add c4bb
000003c0: fad0 a6bd 16dc 48bc 7462 51bd 277f 7cbe
000003d0: 0424 a9bc 79de 30be 24e5 61ae 5513 07bd
000003e0: 2a2f e7bc 5a62 783c 0229 11bd 48e4 d8a7
000003f0: 095e 5ca1 2c13 cabe b84c f0b2 b498 73bd

linear_relu_stack.4.bias f4 [2]
0.0110089015 -0.021086002
00000000: ae5e 343c 8dbc acbc
