Testing/NNModel.pth (torch, 71255 bytes, 6 tensors)

linear_relu_stack.0.weight f4 [128, 3]
0	0x802b6839	-3.986314e-39
1	0x824044ba	-1.4125656e-37
2	0x8027361e	-3.600998e-39
3	0x8001fcaa	-1.82474e-40
4	0x000e872e	1.33419e-39
5	0x9fc3c831	-8.29169e-20
6	0x3ce036b8	0.027369842
7	0x3d29a1ee	0.041414194
8	0x3ce59d9b	0.028029254
9	0x3d0d5e3e	0.034513704
10	0x3d4160a6	0.04721131
11	0x3d117695	0.03551348
12	0x3d24f3e6	0.040271662
13	0x3d36c555	0.044621784
14	0x3d2b0544	0.04175307
15	0x3c519c19	0.012793564
16	0x3c8fe6df	0.017566143
17	0x3c584d8e	0.013202084
18	0x10b65ecf	7.193242e-29
19	0x110844bc	1.0749689e-28
20	0x10b818dd	7.261351e-29
21	0x000696a1	6.05048e-40
22	0x0002c085	2.52734e-40
23	0x004c440c	7.003908e-39
24	0x801e3714	-2.774823e-39
25	0x973599d3	-5.867841e-25
26	0x000b66d7	1.047082e-39
27	0x10c070ca	7.5904426e-29
28	0x11037cc8	1.0372529e-28
29	0x10ba860a	7.3570584e-29
30	0x3d2ccb29	0.042185936
31	0x3d681336	0.056658946
32	0x3d335d0f	0.04378992
33	0x3926df2d	0.00015914133
34	0xb6c99f00	-6.008777e-06
35	0x3788493b	1.6246564e-05
36	0x3cd147f1	0.025547
37	0x3d0ef5c1	0.034902338
38	0x3cd7e9f1	0.02635667
39	0x1098064e	5.996314e-29
40	0x1103df72	1.0402932e-28
41	0x10bc7719	7.4336424e-29
42	0x3d62a68f	0.055334624
43	0x3d9e70d3	0.07736363
44	0x3d6a0b98	0.057139963
45	0x80247b13	-3.350229e-39
46	0x9be6a5a2	-3.8157346e-22
47	0x9ed37d0a	-2.2392209e-20
48	0x3d39c9af	0.045358356
49	0x3d8ec989	0.069720335
50	0x3d36d74e	0.044638924
51	0x3d8ec07b	0.069703065
52	0x3db4a435	0.088203825
53	0x3d9a2db5	0.07528249
54	0x3db2768e	0.08714019
55	0x3de68b94	0.11257091
56	0x3dbe59cb	0.092944704
57	0x275c0085	3.0531415e-15
58	0x279eba8e	4.4056072e-15
59	0x276b23ba	3.2632169e-15
60	0x801518a8	-1.93739e-39
61	0x9a5290e6	-4.354403e-23
62	0x001f8554	2.89473e-39
63	0x2fadd5da	3.1620467e-10
64	0x3163d7ad	3.3155445e-09
65	0x2f68d8bf	2.1177281e-10
66	0x2ba21d25	1.1518882e-12
67	0x28c2d92f	2.1632515e-14
68	0x8b93ecd0	-5.6978656e-32
69	0x001a09b6	2.391207e-39
70	0x8008d57b	-8.11266e-40
71	0x049339eb	3.4612723e-36
72	0x3b073ac1	0.0020634385
73	0x3b3781a3	0.0028000853
74	0x3b078862	0.0020680656
75	0x3d840db4	0.06447926
76	0x3d72d87f	0.059288498
77	0x3d697890	0.056999743
78	0x3d4d56ca	0.050131597
79	0x3d909e31	0.070614226
80	0x3d53cb40	0.051707506
81	0x3d121201	0.0356617
82	0x3d4b1c2a	0.049587406
83	0x3d07fca6	0.03319993
84	0x3cb558ae	0.022137012
85	0x3cc7fdfb	0.0244131
86	0x3c9b26bb	0.018939367
87	0x11c749fb	3.1442258e-28
88	0x121014a4	4.546383e-28
89	0x11e3dd02	3.5950492e-28
90	0x3d8af8bd	0.06785724
91	0x3db21d9a	0.08697052
92	0x3d811f3d	0.06304786
93	0x3b5d09b4	0.0033727707
94	0x3b9499fa	0.004534957
95	0x3b5cd734	0.0033697607
96	0x3bbbe5d0	0.005734183
97	0x3bcdda4e	0.0062821275
98	0x3b6c537b	0.00360605
99	0x0fdf9c45	2.204969e-29
100	0x101afdd2	3.056668e-29
101	0x0fde626b	2.19288e-29
102	0x3db36f6f	0.08761489
103	0x3df63ea4	0.120236665
104	0x3db976e1	0.090558775
105	0x3da14287	0.07874017
106	0x3dba7122	0.091036096
107	0x3d950c0c	0.072776884
108	0x3b30c705	0.0026974094
109	0x3b702b3c	0.0036646863
110	0x3b32a4eb	0.0027258943
111	0x3c3d33d8	0.011548005
112	0x3c81ac63	0.01582927
113	0x3c41c877	0.01182758
114	0x3c93920d	0.018013978
115	0x3cc80366	0.024415683
116	0x3c95d653	0.018290674
117	0x3b7d1bbc	0.0038621267
118	0x3badd7a7	0.005305249
119	0x3b820ab4	0.003968561
120	0x3d4958b6	0.049156867
121	0x3ca8b56e	0.020594325
122	0x3b82faff	0.003997206
123	0x0fe2e972	2.237524e-29
124	0x109c3ce7	6.1624986e-29
125	0x110090c0	1.0142024e-28
126	0x3d8fdb95	0.07024304
127	0x3dc4c6b7	0.09608214
128	0x3d9e653a	0.07734151
129	0x803b1c09	-5.428351e-39
130	0x001e4b2a	2.782029e-39
131	0x801dc621	-2.734305e-39
132	0x98d8364b	-5.5889513e-24
133	0x0000199d	9.188e-42
134	0x800b10bc	-1.016194e-39
135	0x3c8c677d	0.01713919
136	0x3cb64766	0.022250842
137	0x3c8c2310	0.017106563
138	0x10e9dd4a	9.2243245e-29
139	0x1127e853	1.3245568e-28
140	0x10fa7b84	9.879792e-29
141	0x000ef2b8	1.372768e-39
142	0x000d6955	1.231647e-39
143	0x8003608f	-3.10145e-40
144	0x121f4682	5.025846e-28
145	0x12a42a5e	1.0360299e-27
146	0x121ed8b9	5.012314e-28
147	0x3d883c1c	0.0665209
148	0x3d741b3e	0.059596293
149	0x3d5d127b	0.053972702
150	0x3dacd1a3	0.084384225
151	0x3de75fad	0.112975456
152	0x3d882ced	0.06649194
153	0x399fb6fe	0.00030463183
154	0x3b7699fe	0.0037628408
155	0x397f3fe6	0.00024342499
156	0x3bae9417	0.0053277123
157	0x3bf204ad	0.0073858113
158	0x3bb436a2	0.005499677
159	0x00709baf	1.0341424e-38
160	0x00a56a48	1.5190983e-38
161	0x0087986c	1.245247e-38
162	0x3ce5a604	0.028033264
163	0x3d14e5e1	0.036352042
164	0x3d114acc	0.035471722
165	0x3ca7361e	0.020411547
166	0x3ce164d2	0.027513895
167	0x3cc5ce7c	0.024146311
168	0x0d71cd02	7.451063e-31
169	0x0db3f4ea	1.1090688e-30
170	0x0d6c8f9d	7.2895983e-31
171	0x10b08375	6.96223e-29
172	0x10f4aae5	9.6504335e-29
173	0x10adb865	6.8520573e-29
174	0x3c9185fe	0.017764088
175	0x3ce40fb4	0.02783952
176	0x3cb9e443	0.022691851
177	0x9e24f0c9	-8.731881e-21
178	0x004a0137	6.796263e-39
179	0x10677fbf	4.565513e-29
180	0x1181857c	2.0434877e-28
181	0x11bc28db	2.968635e-28
182	0x1181c374	2.0473069e-28
183	0x289ead86	1.7616778e-14
184	0x2f852041	2.4215477e-10
185	0x339a93b3	7.19805e-08
186	0x3d8cc3eb	0.06873306
187	0x3de8a26b	0.11359104
188	0x3d7d2d83	0.06181098
189	0x3d0b2d83	0.03397895
190	0x3d3d2b3c	0.04618381
191	0x3d0e8df6	0.034803353
192	0x10254873	3.2596325e-29
193	0x106cc959	4.6697906e-29
194	0x102d1741	3.4136148e-29
195	0x3d3a67e8	0.04550925
196	0x3d65f4c0	0.056141615
197	0x3d34bded	0.04412644
198	0x3c92b9d3	0.017910874
199	0x3cc949bc	0.024571292
200	0x3c93bb60	0.018033683
201	0x3d8bf3de	0.06833623
202	0x3dc07cf7	0.09398835
203	0x3d9001ae	0.070315704
204	0x3d520c6c	0.051281378
205	0x3daab11b	0.083345614
206	0x3d63927c	0.05555962
207	0x3ce7e9ca	0.028309721
208	0x3d1ed815	0.03878029
209	0x3cf121c4	0.029435046
210	0x3d6de9b6	0.058084212
211	0x3db8611e	0.09002899
212	0x3d3034b1	0.043019
213	0xad60a41d	-1.2769366e-11
214	0x33cffcde	9.685185e-08
215	0x36e87b1d	6.928471e-06
216	0x1172eeaa	1.9163978e-28
217	0x11d70c56	3.3928622e-28
218	0x119f347a	2.5118118e-28
219	0x3d16bc6b	0.036800783
220	0x3d4cea58	0.050028175
221	0x3d188147	0.037232663
222	0x3d73590c	0.059411094
223	0x3dc19ca4	0.09453705
224	0x3dd4249e	0.10358547
225	0x9352b65b	-2.6595635e-27
226	0x80042040	-3.78911e-40
227	0x9591327f	-5.86447e-26
228	0x36bb78ad	5.587083e-06
229	0x3592fcc1	1.0951409e-06
230	0xaac58953	-3.5089518e-13
231	0x0000c746	7.1486e-41
232	0x941b3d74	-7.83762e-27
233	0x8018ff42	-2.295621e-39
234	0x0fb67076	1.7989904e-29
235	0x1019c378	3.0324513e-29
236	0x0fbce3d3	1.8625986e-29
237	0x3c1d5808	0.009603508
238	0x3c58aa9a	0.013224268
239	0x3c222d5b	0.009898509
240	0x3b73cde2	0.0037201573
241	0x3c10f306	0.008847004
242	0x3bc258df	0.0059310044
243	0x35a5101d	1.2298148e-06
244	0x391e2581	0.00015082025
245	0x39f81233	0.00047315806
246	0x3c119b24	0.008887086
247	0x3c9a2220	0.0188151
248	0x3c2266f2	0.009912239
249	0x10841d17	5.210964e-29
250	0x10bdf0e9	7.4918536e-29
251	0x1084851d	5.2269913e-29
252	0x3dc0b1ff	0.0940895
253	0x3dfa309f	0.12216305
254	0x3d8f3429	0.06992371
255	0x8005220a	-4.71388e-40

linear_relu_stack.0.bias f4 [128]
0	0x9212309f	-4.6129407e-28
1	0x000b5639	1.041121e-39
2	0x3d8b09ce	0.067889795
3	0x3daa84a3	0.0832608
4	0x3dfe18ac	0.124070495
5	0x3cfeb48d	0.031091953
6	0x1159e472	1.7188677e-28
7	0x9f9a834b	-6.543874e-20
8	0x8001ac9b	-1.53755e-40
9	0x1161c249	1.7809239e-28
10	0x3dd49233	0.10379448
11	0xb96eca74	-0.00022772868
12	0x3d8123c9	0.063056536
13	0x11624558	1.7849625e-28
14	0x3dfe767e	0.12424944
15	0x8017e3a5	-2.19388e-39
16	0x3de127a3	0.10993888
17	0x3e43af23	0.19109778
18	0x3e54070f	0.20705818
19	0x2807a29a	7.529264e-15
20	0x0038f449	5.230421e-39
21	0x31c3dd07	5.700375e-09
22	0xaf9ac5e2	-2.815304e-10
23	0x9d1c993f	-2.0725654e-21
24	0x3ba329d2	0.0049793506
25	0x3e5b9157	0.21442162
26	0x3dfd1ba6	0.12358789
27	0x3da3d745	0.08000044
28	0x3d366f4d	0.04453974
29	0x1277c05b	7.8176554e-28
30	0x3e0be504	0.13661581
31	0x3c03014e	0.0079959165
32	0x3b86d3e2	0.004114614
33	0x108c4dcc	5.534013e-29
34	0x3e538dca	0.20659557
35	0x3e4630d3	0.19354562
36	0x3bd2ef65	0.0064372295
37	0x3ce5cf5e	0.028052982
38	0x3d2b6296	0.041842066
39	0x3c1aa0e6	0.009437775
40	0xbd966a5f	-0.073445074
41	0x1107ce8d	1.071327e-28
42	0x3e43ee37	0.1913384
43	0x9d93e95d	-3.915187e-21
44	0x8455c23b	-2.5127216e-36
45	0x3d2a6cf6	0.04160782
46	0x11914faa	2.2926063e-28
47	0x912057d0	-1.2648834e-28
48	0x12c16f4a	1.2207447e-27
49	0x3e37a23b	0.1793298
50	0x3e23a393	0.15980367
51	0xbbe9252e	-0.007115028
52	0x3c56748d	0.013089311
53	0x01107dc4	2.6538855e-38
54	0x3e0dff3d	0.13866897
55	0x3d4bd219	0.04976091
56	0x0e12709d	1.805011e-30
57	0x1152c11f	1.6625589e-28
58	0x3cc9be70	0.02462694
59	0x8351f6a7	-6.1702723e-37
60	0x121f9e08	5.036634e-28
61	0xb668844a	-3.4647696e-06
62	0x3e71b9b8	0.23606002
63	0x3da18129	0.078859635
64	0x10c2c6fd	7.68261e-29
65	0x3df0faf6	0.11766617
66	0x3d2c45fe	0.042058937
67	0x3e2c0c06	0.16801462
68	0x3dbe256d	0.09284482
69	0x3d8c3f90	0.06848061
70	0x3e16251d	0.14662595
71	0xb811e4fc	-3.4783952e-05
72	0x122c56f0	5.438079e-28
73	0x3db608ce	0.08888398
74	0x3e8a152a	0.26969272
75	0x000c9843	1.156647e-39
76	0xb822a682	-3.8778882e-05
77	0x0007dd2e	7.22193e-40
78	0x1073189c	4.7942258e-29
79	0x3cbe2abb	0.023213735
80	0x3b6c2192	0.0036030752
81	0xba7f2c27	-0.0009734057
82	0x3c8cffdb	0.017211845
83	0x1123f17a	1.2932843e-28
84	0x3e5238de	0.20529506
85	0x99b7c264	-1.900027e-23
86	0x3d71f13e	0.059067957
87	0x0801d556	3.90703e-34
88	0x3e4c2192	0.19934681
89	0x3e8cece0	0.2752447
90	0x115bd9dc	1.7343187e-28
91	0x3cd402a4	0.025880165
92	0x3e09fdc1	0.13475706
93	0x9ab4b89e	-7.474452e-23
94	0x3dd11f31	0.102110274
95	0x803b9213	-5.470696e-39
96	0x3e2b904a	0.1675426
97	0x3e674569	0.22585072
98	0x3e379afa	0.17930213
99	0x9922a37d	-8.40822e-24
100	0x3df44224	0.11926678
101	0x3cac8689	0.021060245
102	0x3e23c7fe	0.1599426
103	0x3d085404	0.03328325
104	0x3de69443	0.112587474
105	0x12374f14	5.784209e-28
106	0x3acecdd4	0.0015777894
107	0x3dacb6b0	0.084332824
108	0x3e311e8b	0.17296807
109	0xbb895466	-0.0041909693
110	0x3ca1a6bf	0.019732831
111	0x801ac3c9	-2.457957e-39
112	0x00101b3c	1.479138e-39
113	0x17607803	7.252978e-25
114	0x3e9d3905	0.30707565
115	0x3e9732cd	0.29530945
116	0x32ff8fd0	2.9751305e-08
117	0x3e2ab421	0.16670276
118	0x98301671	-2.2758797e-24
119	0x96302e8b	-1.4231853e-25
120	0x3e015f50	0.12634015
121	0x3d9b58cc	0.07585296
122	0x3eaea365	0.34109035
123	0x9ed3a547	-2.2408851e-20
124	0x3e12a49a	0.14320603
125	0x3c516636	0.012780717
126	0x3e47f125	0.19525583
127	0x3bbb41f4	0.0057146493

linear_relu_stack.2.weight f4 [128, 128]
0	0x802f5ebb	-4.350251e-39
1	0x0022f799	3.211228e-39
2	0x24fa4084	1.0852951e-16
3	0x254593b9	1.7137077e-16
4	0x254c23fd	1.7706373e-16
5	0x244fb9b2	4.504326e-17
6	0x0034cd26	4.849039e-39
7	0x80107ca0	-1.514075e-39
8	0x000267bc	2.20884e-40
9	0x803a9928	-5.381401e-39
10	0x2540b042	1.6713064e-16
11	0x93613cb9	-2.8428931e-27
12	0x25131c60	1.2759831e-16
13	0x001dfdaa	2.754227e-39
14	0x2598534a	2.6424236e-16
15	0x000a5e9d	9.52296e-40
16	0x2584c57a	2.3032165e-16
17	0x25aab6df	2.9614217e-16
18	0x25b15f66	3.076925e-16
19	0x0fa161a6	1.5913439e-29
20	0x80daa996	-2.0080974e-38
21	0x192b7285	8.86362e-24
22	0x00099a98	8.81977e-40
23	0x002c1d33	4.051237e-39
24	0x233aeab8	1.0132784e-17
25	0x25cfc562	3.6042528e-16
26	0x25694b9f	2.023515e-16
27	0x253df0d6	1.6474735e-16
28	0x24d52cc8	9.244989e-17
29	0x00df4002	2.0502277e-38
30	0x25fa0c9b	4.337663e-16
31	0x2362fc2b	1.2304883e-17
32	0x238e79c2	1.5447237e-17
33	0x803e77b2	-5.73674e-39
34	0x25aa593a	2.9550761e-16
35	0x25f67b26	4.2757646e-16
36	0x2361954a	1.2228888e-17
37	0x248442b0	5.735885e-17
38	0x24b457d8	7.821137e-17
39	0x23efb379	2.5988442e-17
40	0x18456515	2.5512687e-24
41	0x803fbb5d	-5.85285e-39
42	0x25d9a168	3.7752873e-16
43	0x0012e174	1.733916e-39
44	0x800a7037	-9.5861e-40
45	0x249e38ee	6.861802e-17
46	0x80354aa6	-4.89406e-39
47	0x000a52de	9.48082e-40
48	0x00985df4	1.39927e-38
49	0x258080c0	2.2291705e-16
50	0x25c85dbf	3.4757994e-16
51	0x9310e5d8	-1.8288677e-27
52	0x2423dea4	3.5533575e-17
53	0x80c361d4	-1.7943016e-38
54	0x25b5bcc4	3.1526407e-16
55	0x24ee1c59	1.0326407e-16
56	0x00246b36	3.344538e-39
57	0x00474bf8	6.547573e-39
58	0x24a2baee	7.057297e-17
59	0x016725a4	4.2455005e-38
60	0x0005d04a	5.33898e-40
61	0x00300930	4.4114e-39
62	0x25f889d5	4.311454e-16
63	0x253c9bbe	1.6359168e-16
64	0x0006af4c	6.13898e-40
65	0x258282ce	2.2640042e-16
66	0x248b59d2	6.04338e-17
67	0x259407d2	2.5679207e-16
68	0x25835d0c	2.2787929e-16
69	0x24ec6ffa	1.0253838e-16
70	0x25a411a5	2.8461421e-16
71	0x80243f83	-3.328862e-39
72	0x00283910	3.69389e-39
73	0x2559229f	1.883348e-16
74	0x25c9a021	3.497645e-16
75	0x803b0ab9	-5.422141e-39
76	0x00311320	4.5068e-39
77	0x0049aefe	6.766767e-39
78	0x8201f59a	-9.547907e-38
79	0x2451dd93	4.550733e-17
80	0x2369a085	1.2664947e-17
81	0x94f0f428	-2.433011e-26
82	0x24859948	5.7939224e-17
83	0x0147c786	3.6693679e-38
84	0x25f0d9b0	4.1780874e-16
85	0x002237d0	3.142429e-39
86	0xa38b6400	-1.5112762e-17
87	0x00296640	3.801936e-39
88	0x25a8ccdf	2.928218e-16
89	0x2631b50b	6.165457e-16
90	0x0186b23c	4.947958e-38
91	0x2473790a	5.279475e-17
92	0x258fedaa	2.4967593e-16
93	0x8023ea71	-3.298344e-39
94	0x256f2dd2	2.074547e-16
95	0x0046665d	6.465206e-39
96	0x259bbb86	2.7015285e-16
97	0x25fb84db	4.3631586e-16
98	0x259933f5	2.6576477e-16
99	0x002a4c85	3.884541e-39
100	0x25b4297a	3.1253128e-16
101	0x24495b6c	4.3662365e-17
102	0x25c5a154	3.4283373e-16
103	0x249f9439	6.920636e-17
104	0x25867879	2.332693e-16
105	0x0022c90a	3.194526e-39
106	0x221f5094	2.1591176e-18
107	0x25495999	1.7464328e-16
108	0x25b7a441	3.1856742e-16
109	0x00df1164	2.0485554e-38
110	0x240082c0	2.7866325e-17
111	0x01317a08	3.259732e-38
112	0x80040de4	-3.72325e-40
113	0x80694485	-9.667307e-39
114	0x25ec521c	4.0995114e-16
115	0x2615b807	5.1944163e-16
116	0x1a965b1d	6.218575e-23
117	0x25b9fc72	3.2263448e-16
118	0x004b1666	6.895697e-39
119	0x0024864b	3.354253e-39
120	0x2589bf30	2.3895265e-16
121	0x24fc789d	1.09491906e-16
122	0x2654cc37	7.382904e-16
123	0x819ce00c	-5.762684e-38
124	0x2584cd65	2.303753e-16
125	0x23f22236	2.6252181e-17
126	0x25bcaf2c	3.2731502e-16
127	0x2357dfa4	1.1702531e-17
128	0x004b1d9c	6.898284e-39
129	0x002affbd	3.948832e-39
130	0x3bdbf6a3	0.006712751
131	0x3c13699c	0.008997347
132	0x3c2cf9f9	0.010557645
133	0x3b48a93d	0.0030618452
134	0x0fb0fe0c	1.7452795e-29
135	0x8149ef2a	-3.708946e-38
136	0x80196af1	-2.334251e-39
137	0x0fa99d59	1.6725295e-29
138	0x3c24e554	0.010064442
139	0x2b643c8c	8.10859e-13
140	0x3bc86bcc	0.006116366
141	0x0fe01fbe	2.2100332e-29
142	0x3cc06fd6	0.023490828
143	0x80332783	-4.697784e-39
144	0x3c3ad3f2	0.011403071
145	0x3c949a3f	0.018139957
146	0x3cfd4ab5	0.030919412
147	0x261aff12	5.377517e-16
148	0x002889bf	3.722834e-39
149	0xad066ff6	-7.6418784e-12
150	0x9003365a	-2.5877066e-29
151	0x0029871d	3.813725e-39
152	0x39ff00eb	0.00048638074
153	0x3c8a93c3	0.016916161
154	0x3c44eee2	0.012019845
155	0x3c4ebb11	0.012617842
156	0x3b8f6ec5	0.0043772184
157	0x10666ba6	4.544243e-29
158	0x3cd3006d	0.025757039
159	0x3a51a755	0.00079976517
160	0x38eaefd6	0.000112026624
161	0x0ebdda24	4.680216e-30
162	0xbaa93407	-0.0012909182
163	0x3cdcb614	0.02694229
164	0x3a281d7c	0.0006413085
165	0x3b33f058	0.0027456488
166	0x3bc7ce85	0.006097617
167	0x3a71b930	0.00092210155
168	0x3817aa68	3.615991e-05
169	0x0f50eda7	1.0300962e-29
170	0x3c91b309	0.017785566
171	0x801ff703	-2.935511e-39
172	0x003891d8	5.195107e-39
173	0x3b83dba3	0.0040239855
174	0x0f2f078a	8.629618e-30
175	0x80479969	-6.575353e-39
176	0x1101b20b	1.023117e-28
177	0x3c65ca9d	0.014025358
178	0x3cc5267c	0.024066202
179	0x37308418	1.0521173e-05
180	0x3aa6937f	0.0012708752
181	0x00518809	7.487475e-39
182	0x3c2d4546	0.010575598
183	0x3ba14a36	0.0049221767
184	0x0c3ac085	1.4386853e-31
185	0x0f8730a8	1.333077e-29
186	0x3b6c3cdf	0.0036047024
187	0x80471ab8	-6.529905e-39
188	0x1037921b	3.6202942e-29
189	0x004bb851	6.953782e-39
190	0x3ca7c8a0	0.020481408
191	0x3c6011c4	0.013676111
192	0x0f010004	6.360194e-30
193	0x3c3150c0	0.010822475
194	0x3b7f6dbf	0.0038975326
195	0x3ca66f80	0.02031684
196	0x3cc3cf61	0.023902597
197	0x3beb39f1	0.007178538
198	0x3c6eabea	0.014567355
199	0x2236d42d	2.4777924e-18
200	0x1004ddf5	2.62034e-29
201	0x3c187473	0.009305107
202	0x3ce641a7	0.028107477
203	0x81902043	-5.294354e-38
204	0x23eafd14	2.5477514e-17
205	0x012fdc7c	3.2300613e-38
206	0x0eaf75d3	4.325429e-30
207	0x3b15fd77	0.0022886673
208	0x3a5420a8	0.00080920244
209	0x330ea694	3.3213453e-08
210	0x3b09651d	0.002096481
211	0x0f195980	7.5607195e-30
212	0x3cbd1b98	0.023084447
213	0x8019c479	-2.366369e-39
214	0x3bf918de	0.0076018414
215	0x02013e5c	9.49532e-38
216	0x3cd130df	0.025535999
217	0x3c2b33f1	0.0104493955
218	0x0f92a74a	1.4461149e-29
219	0x3b272ffc	0.0025510779
220	0x3c9f74a0	0.01946479
221	0x8025a8f1	-3.458518e-39
222	0x3c22f74b	0.009946655
223	0x0018ef81	2.28997e-39
224	0x3cad3137	0.021141632
225	0x3cd9244d	0.026506567
226	0x3c3b314a	0.011425326
227	0x80132e79	-1.761546e-39
228	0x3c5b2339	0.013375097
229	0x3b07c84f	0.0020718758
230	0x3c77a478	0.015114896
231	0x3b56d2af	0.0032779386
232	0x3cf97ed9	0.030455993
233	0x106a0637	4.615315e-29
234	0x39263c3e	0.00015853436
235	0x3b89e3ff	0.0042080875
236	0x3c6f69e4	0.014612649
237	0x385f9b71	5.331211e-05
238	0x3afc50c7	0.0019250148
239	0x000dbc07	1.261313e-39
240	0x00397412	5.276261e-39
241	0x866edf40	-4.4926843e-35
242	0x3ccc40ed	0.024933303
243	0x3cb3b116	0.021935027
244	0x3148aaaa	2.9200842e-09
245	0x3c5d0466	0.013489818
246	0x000786db	6.91225e-40
247	0x003de217	5.683071e-39
248	0x3ca7302c	0.020408712
249	0x3bdc6970	0.0067264363
250	0x3d0e2661	0.03470457
251	0x0030032e	4.409244e-39
252	0x3c945d1e	0.018110808
253	0x3aa3da5a	0.0012500987
254	0x3ce05876	0.027385931
255	0x3a130a4b	0.0005609139

linear_relu_stack.2.bias f4 [128]
0	0x26a56526	1.1476591e-15
1	0x3c8db405	0.017297754
2	0xba032234	-0.000500235
3	0x3cf76fcf	0.030204682
4	0x39a297a1	0.0003101202
5	0xbcbc08cc	-0.022953413
6	0x3d2bf4a0	0.04198134
7	0xba22e816	-0.0006214393
8	0x3d3f8530	0.046757877
9	0x3e88a428	0.2668774
10	0xb6d8de26	-6.463163e-06
11	0x3d1aeaab	0.037821453
12	0x3ccd3eea	0.025054414
13	0xbae59050	-0.0017514322
14	0x3c9d1bbd	0.019178266
15	0x3de56875	0.11201564
16	0xad5efe1d	-1.26756635e-11
17	0x3b461eb7	0.003023071
18	0x3e2519f4	0.16123182
19	0x28e84d4e	2.57907e-14
20	0x3d8c1f99	0.06841964
21	0x3d33b35a	0.043872215
22	0x3ce7a4d8	0.028276846
23	0x24b9a193	8.050468e-17
24	0x3a912599	0.0011073827
25	0x099b4c66	3.7386737e-33
26	0x1ca00f70	1.0591902e-21
27	0x3cc93bb9	0.02456461
28	0x3ce96df7	0.028494818
29	0xba1b8e56	-0.00059339905
30	0x36832617	3.9085385e-06
31	0x39ae9789	0.0003330077
32	0x3cac80ec	0.021057568
33	0xba148fac	-0.0005667161
34	0x3d8aa1e3	0.06769159
35	0x3d5d6f8a	0.05406145
36	0x3d51185e	0.05104863
37	0x3d5a5b62	0.053309806
38	0x9b6990ac	-1.9320054e-22
39	0xbca7bcaf	-0.020475714
40	0xb9b2c4a7	-0.00034097323
41	0x3d81031f	0.062994234
42	0x3d186d9d	0.03721391
43	0x3e9a338f	0.3011746
44	0x3c36c321	0.011154921
45	0x3e929d05	0.2863542
46	0x39d99b48	0.0004150516
47	0xbb91d200	-0.004450083
48	0xbbb29f45	-0.0054511153
49	0x1721f51e	5.2331287e-25
50	0x3d91c735	0.07118074
51	0xbb2d29f2	-0.0026422706
52	0x154016db	3.879212e-26
53	0x23bfd89f	2.0800004e-17
54	0x250dbcdf	1.2293793e-16
55	0x3cadd023	0.021217411
56	0x018859b0	5.0087205e-38
57	0x3cf58bcd	0.029973889
58	0x0a20b95a	7.7385805e-33
59	0x25190ba0	1.3274573e-16
60	0x3cb60818	0.022220656
61	0x3b6676d8	0.0035166051
62	0x3d29833c	0.04138492
63	0x3caee594	0.021349706
64	0x3cee498a	0.0290878
65	0x3d2e1a5f	0.04250562
66	0x3e655119	0.22394218
67	0xbb83a30f	-0.004017241
68	0x370a783e	8.253437e-06
69	0x997fd5fd	-1.32264056e-23
70	0x3acfb3a1	0.001584638
71	0x3bf62cf7	0.0075126844
72	0x3d4a2ddb	0.049360137
73	0x3bdaf35b	0.0066818423
74	0x3e943649	0.28947666
75	0x39989bdf	0.00029107832
76	0x176bf4a6	7.6241385e-25
77	0x20661df7	1.9491672e-19
78	0x3cec8a21	0.028874459
79	0x3ce262ec	0.02763506
80	0x3d1aba83	0.037775528
81	0x22ef27c4	6.4823183e-18
82	0x3c436601	0.011926175
83	0x3a0ae71c	0.000529872
84	0x3beea241	0.0072825258
85	0x3c4fee2d	0.012691063
86	0x37686647	1.3852091e-05
87	0xb7033fc1	-7.823052e-06
88	0x3b8e8aa9	0.0043500257
89	0x3d0fd4aa	0.03511492
90	0x19cb7c53	2.1039922e-23
91	0x3d856339	0.06513066
92	0x3d12b7c3	0.03581978
93	0x3d95a5f8	0.07307047
94	0x3d22c435	0.0397379
95	0xbd03c423	-0.032169472
96	0x278b11fe	3.8599757e-15
97	0x3b14d976	0.0022712625
98	0x1fa0b744	6.8065823e-20
99	0x3cf5f416	0.030023616
100	0x1cafc746	1.163204e-21
101	0x3d4990c7	0.049210336
102	0xab459bb5	-7.0204546e-13
103	0x2060b586	1.9033599e-19
104	0x3b1f477c	0.0024304083
105	0x39484fe8	0.00019103254
106	0xbbd20331	-0.006409072
107	0x3d8b038b	0.06787785
108	0x13f59900	6.1997565e-27
109	0x3e012b77	0.12614237
110	0x39cef115	0.00039471002
111	0x3d7f91cf	0.062394913
112	0x3a9a297c	0.0011761631
113	0x180c1d9e	1.8109529e-24
114	0xba944a91	-0.0011313726
115	0x3a72b635	0.00092587183
116	0x3cf44fe7	0.029823257
117	0x3d1a0894	0.037605837
118	0x3d443c10	0.047908843
119	0x3d978064	0.073975354
120	0x3d492d6b	0.04911558
121	0x3d9d417f	0.07678508
122	0xb94ea828	-0.00019708334
123	0x3d3dfb22	0.046382077
124	0xb94eb929	-0.00019714668
125	0x3cab9b82	0.020948175
126	0x3d16c521	0.03680909
127	0x3a2d68ba	0.0006615032

linear_relu_stack.4.weight f4 [2, 128]
0	0x26feff48	1.7693985e-15
1	0x3da21d90	0.07915795
2	0xb0256c29	-6.0180355e-10
3	0x3b91535e	0.004434987
4	0x3a03492b	0.00050081563
5	0xbc6b460c	-0.014359962
6	0x3d91bbca	0.07115896
7	0xbbfe93c2	-0.007769079
8	0x3dc33502	0.09531595
9	0x3ed6aa84	0.41926968
10	0xbbef733e	-0.007307439
11	0x3dcf809b	0.101319514
12	0xbcbb953e	-0.022898313
13	0xb7314257	-1.0565468e-05
14	0x3d36ee40	0.044660807
15	0x3e3331dd	0.1749949
16	0x15cfcacb	8.3926585e-26
17	0x3b9976f7	0.004683371
18	0x3e8109de	0.2520284
19	0x292017a5	3.5547645e-14
20	0x3de1eba0	0.1103127
21	0x3cf3d214	0.029763259
22	0x3d79b886	0.06096699
23	0x28241a1c	9.10949e-15
24	0x3ae2cb2a	0.0017302979
25	0x097f21bc	3.071037e-33
26	0x1ca6087a	1.098715e-21
27	0x3d1d0d63	0.038342845
28	0xbc4e95f8	-0.0126089975
29	0xbc6e603a	-0.014549309
30	0x36e7b051	6.9048624e-06
31	0x39fb9abe	0.00047989743
32	0x3da8278b	0.08210667
33	0xaf566a24	-1.9500895e-10
34	0x3d8ee795	0.069777645
35	0x3d310eee	0.04322713
36	0x3d4d7234	0.05015774
37	0x3d4edbc8	0.05050257
38	0x9c7f7370	-8.452162e-22
39	0xba96f07d	-0.0011515763
40	0xbc49b243	-0.012310567
41	0x3defcbb5	0.11708776
42	0x3d872d32	0.06600417
43	0x3ef264cb	0.47342524
44	0x3de3e141	0.11126948
45	0x3ee66775	0.45000806
46	0x3a022cc4	0.0004965777
47	0xbd0d7aa2	-0.03454078
48	0x3bad4f17	0.0052889693
49	0x17510587	6.753852e-25
50	0x3dda0c90	0.10646927
51	0xb8871a9c	-6.442258e-05
52	0x1590f83a	5.855277e-26
53	0x2402e91b	2.8386704e-17
54	0x25fc72fe	4.3792953e-16
55	0x3d6819d7	0.056665268
56	0x01ae0e5e	6.393812e-38
57	0x3ce5e9ba	0.028065551
58	0x0ba61fae	6.398854e-32
59	0x24b1b42a	7.7066724e-17
60	0xbcdb3bd3	-0.026761925
61	0x3b813719	0.0039433357
62	0x3bc54682	0.006020368
63	0xbd0946ba	-0.033514716
64	0x3dce63ec	0.10077652
65	0x3ddc8ef7	0.10769456
66	0x3eb3fca9	0.35153702
67	0x3c311d2f	0.010810181
68	0xb9a07b99	-0.00030609666
69	0x19c7516a	2.0609e-23
70	0x3b303ce3	0.002689176
71	0xbbc06186	-0.0058710007
72	0x3dcaf888	0.09910685
73	0x3c402f25	0.01172999
74	0x3ee8ef4d	0.45495072
75	0x39cde285	0.00039269417
76	0x174b1eda	6.563178e-25
77	0x20d3c821	3.5877225e-19
78	0x3d9d2778	0.07673544
79	0x3d3eeef0	0.046614587
80	0x3cb12707	0.021625055
81	0x22d25839	5.7014023e-18
82	0x3cccacf9	0.024984824
83	0x3a5bad3f	0.00083800027
84	0xbcb8e942	-0.022572163
85	0xbbabd428	-0.005243797
86	0x2e8e2ca1	6.46534e-11
87	0x3a27fcef	0.00064082345
88	0x3c812dd5	0.015768925
89	0x3d6169c8	0.05503252
90	0x16261905	1.3417268e-25
91	0x3dcbe6be	0.0995612
92	0x3d02eb2a	0.03196255
93	0x3dfc355b	0.12314864
94	0x3d1cfebe	0.03832888
95	0xbd27542f	-0.040851768
96	0x28121d37	8.110963e-15
97	0x3b7046a8	0.0036663208
98	0x215ba7fd	7.4422417e-19
99	0x3cd346c9	0.025790589
100	0x1d273247	2.2128259e-21
101	0x3c848f49	0.016181605
102	0xb25d0308	-1.2864582e-08
103	0x202415a3	1.3898499e-19
104	0xba8eb52b	-0.0010887732
105	0x38498774	4.8048285e-05
106	0xbcec65ee	-0.028857198
107	0x3dd85895	0.10563771
108	0x92006b47	-4.052191e-28
109	0x3e493ae5	0.19651373
110	0x3c6127ae	0.0137423705
111	0x3dabf8d4	0.083970696
112	0x3acc374f	0.0015580448
113	0x187e88f8	3.2897882e-24
114	0xb9883c24	-0.0002598475
115	0x3bbab1a2	0.005697445
116	0x3dd7a357	0.105292015
117	0x3d080e7e	0.033216946
118	0x3daabbc3	0.08336594
119	0x3dd2e94c	0.10298404
120	0x3ddd4cbd	0.10805652
121	0x3df7076d	0.12061963
122	0x3518930e	5.6838405e-07
123	0x3deda335	0.11603395
124	0xa462f6c5	-4.921496e-17
125	0x3d8d3472	0.06894769
126	0x3d43803e	0.047729723
127	0x3a8bcabf	0.0010665281
128	0xa6c8bb1b	-1.3928503e-15
129	0xbdc8d2e3	-0.098058484
130	0x2f9ce10f	2.8536148e-10
131	0xbdc1d96b	-0.09465297
132	0xba0368fe	-0.00050128985
133	0xbab5564a	-0.001383492
134	0xbdde6455	-0.108589806
135	0xbbdf5a39	-0.0068161753
136	0xbd6b12ff	-0.057391163
137	0xbed6a95b	-0.41926083
138	0xbbfc2b26	-0.0076955734
139	0xbd03be4f	-0.032163914
140	0x3c869bae	0.016431656
141	0xb644e620	-2.9340226e-06
142	0xbdc48424	-0.09595516
143	0xbe334dcb	-0.17510144
144	0x185ea69b	2.8776942e-24
145	0xbb99783f	-0.004683524
146	0xbe8106ec	-0.25200593
147	0xa909c494	-3.0590615e-14
148	0xbdd8d5a3	-0.10587623
149	0xbdd4fe75	-0.10400096
150	0xbd0dd29a	-0.034624673
151	0x288084ba	1.4268416e-14
152	0xbae2cd4c	-0.0017303615
153	0x09081582	1.6380517e-33
154	0x9c22b183	-5.383073e-22
155	0xbd1d0b9e	-0.038341157
156	0xbdd1ce28	-0.10244399
157	0xbc607ac6	-0.0137011465
158	0xb6e7ce3c	-6.9083453e-06
159	0xb9e5002f	-0.0004367842
160	0xbd37704f	-0.04478484
161	0x2fab15d4	3.112023e-10
162	0xbdeca5da	-0.11555071
163	0xbdd2cb4b	-0.10292681
164	0xbdd03899	-0.10167045
165	0xbd950a68	-0.072773755
166	0x1c8ee1f7	9.455182e-22
167	0x3c80afd0	0.015708834
168	0xbc35aec5	-0.011089032
169	0xbdd869cd	-0.10567055
170	0xbd743cd5	-0.059628326
171	0xbef2639e	-0.47341627
172	0xbde5d155	-0.112215675
173	0xbee665de	-0.44999593
174	0xba2496a9	-0.00062785536
175	0x3c51542d	0.012776417
176	0x3c6b4f03	0.0143621
177	0x9728aadb	-5.449938e-25
178	0xbe019631	-0.1265495
179	0x388f82a5	6.843106e-05
180	0x9591417c	-5.866835e-26
181	0xa3e9f575	-2.5365866e-17
182	0xa3c89ad0	-2.1749609e-17
183	0xbc240a50	-0.010012224
184	0x0094a7e0	1.3651876e-38
185	0xbde10a78	-0.10988325
186	0x8b1262b4	-2.8192833e-32
187	0xa4a25b46	-7.0410924e-17
188	0x3c4a6600	0.01235342
189	0x3d17b44d	0.037037183
190	0xbde7f1d8	-0.11325425
191	0xbdce67ab	-0.10078367
192	0xbde27524	-0.11057499
193	0xbcd8b3b9	-0.026452886
194	0xbeb3fbbc	-0.35152996
195	0x3c9945a4	0.018709965
196	0xb98366ca	-0.0002506285
197	0x190234d8	6.731514e-24
198	0xbb313b36	-0.002704335
199	0x3bf1acf9	0.0073753563
200	0xbdc86f2c	-0.09786829
201	0xbc10a403	-0.008828166
202	0xbee8ee0d	-0.45494118
203	0xb9ed2630	-0.00045232615
204	0x97123483	-4.7241423e-25
205	0xa0ad5145	-2.936112e-19
206	0xbd1c60ef	-0.03817838
207	0xbd551b27	-0.052027848
208	0xbddca44e	-0.10773526
209	0x22aa1038	4.6095765e-18
210	0xbc4d1014	-0.01251604
211	0xba5b9fcb	-0.0008377998
212	0x3a2d33f6	0.0006607169
213	0x3d0fd328	0.035113484
214	0xae665179	-5.2368308e-11
215	0x3a5657ad	0.0008176517
216	0x3c3c4fb0	0.011493608
217	0xbd616ca5	-0.055035252
218	0x16b33943	2.8955147e-25
219	0xbdf23969	-0.11827356
220	0xbd956be9	-0.07295973
221	0xbd9e3285	-0.077244796
222	0xbddef467	-0.1088646
223	0xbc2231e9	-0.009899595
224	0xa814b547	-8.254959e-15
225	0xbb6ff320	-0.003661342
226	0xa0853ca4	-2.2571205e-19
227	0xbd8f0cd0	-0.06984866
228	0x9d06fed1	-1.786649e-21
229	0xbdeb4742	-0.11488201
230	0xb1e70017	-6.722995e-09
231	0xa1002d30	-4.342789e-19
232	0x3be17e88	0.006881539
233	0xb84917a7	-4.7944162e-05
234	0x3c712a30	0.014719531
235	0xbdde99ae	-0.10869156
236	0x91298e1c	-1.337554e-28
237	0xbe4933bd	-0.19648643
238	0x3c7485f2	0.014924513
239	0xbdde37dc	-0.10850498
240	0x3b5bf97c	0.0033565452
241	0x189e34ac	4.0895228e-24
242	0x39c01587	0.00036637133
243	0x3b367687	0.0027841644
244	0xbdebe035	-0.115173735
245	0xbdc5a055	-0.096497215
246	0xbd45ef10	-0.04832369
247	0xbd8137f5	-0.06309501
248	0xbdf01bf5	-0.117240824
249	0xbdb10dd3	-0.08645215
250	0x3855512f	5.0858765e-05
251	0xbdc95d08	-0.098321974
252	0x22570224	2.9139067e-18
253	0xbd9d1d36	-0.07671587
254	0xbd94ae36	-0.072597906
255	0xba8bafc5	-0.0010657242

linear_relu_stack.4.bias f4 [2]
0	0xbc5e9c6a	-0.013587097
1	0xbdb6070d	-0.088880636
